mlp_trades_I.pt (torch, 18067 bytes, 7 tensors)

model.0.weight f4 [64, 14]
000000 88 49 e7 3d e3 8b 86 bc 11 be 0d 3b 7c 25 52 be
       0.11293322 -0.016424125 0.002162818 -0.20522112
000010 3c 3c ae bc 6a 54 98 3d 73 c8 43 3e 00 f4 7f 3b
       -0.021268956 0.07437976 0.19119434 0.0039055347
000020 52 a5 aa bd 75 5e 88 be 53 48 89 3e bc 41 1a be
       -0.083323136 -0.26634565 0.26812991 -0.15064138
000030 02 7e 1b be c6 26 24 bd fd ac b3 3d ca 6b 58 3e
       -0.15184787 -0.04007604 0.08773229 0.21134868
000040 1f 58 ef bd 13 61 68 3e b8 14 f6 3d 7e b2 08 3e
       -0.1168673 0.22693281 0.120156705 0.1334934
000050 ca 19 af 3d 04 70 46 3e 20 3c 5b 3e 6b 1f d8 bd
       0.08549841 0.19378668 0.21409655 -0.105528675
000060 c5 7f 74 3e ff 11 4c bd 6b f1 14 3e a9 ac e1 3d
       0.23876865 -0.04982185 0.14545219 0.110192604
000070 c1 b7 8c 3e ea 7c e2 3c 07 e5 8c be 09 cf f2 bd
       0.27483943 0.027647454 -0.27518484 -0.11855895
000080 8c 7c 9b 3d de 48 5c 3e 7e 80 50 bd e2 81 74 3e
       0.07592115 0.21512172 -0.05090379 0.23877671
000090 be 8e 20 3e d1 48 6a be 2e b9 f6 3d 6f 74 2b be
       0.15679452 -0.2287934 0.12047039 -0.16743635
0000a0 e3 0b 3a be 79 d7 66 3e a1 16 18 3d 4f 25 6a be
       -0.18168597 0.22543134 0.037130956 -0.22865795
0000b0 e4 ca 7b be 13 0a 2b 3d f6 0b 05 3e 94 55 39 be
       -0.24589115 0.041757654 0.12992844 -0.18099052
0000c0 54 4d 0d be d0 88 fa 3d 6c 82 6f be 56 c7 e4 bd
       -0.1379903 0.12233126 -0.23389596 -0.11170833
0000d0 42 f6 2d bc 4c 04 b6 3e de eb 5d 3e 95 bc aa bd
       -0.0106177945 0.35550153 0.21672007 -0.083367504
0000e0 54 d7 a0 3d bc bf 82 3e d2 cc 09 3e a8 fc 39 3e
       0.078535706 0.25536907 0.13457039 0.18162787
0000f0 44 c1 75 be 3b ca 1c be f0 33 45 3e c8 ad 52 bd
       -0.23999506 -0.1531152 0.19258094 -0.051435262
000100 68 52 6f be e5 4b 4f bd 11 92 2a 3d 18 86 a0 be
       -0.23371279 -0.050609488 0.041643206 -0.31352305
000110 5a 96 82 3d 64 d4 85 3e ec ab b7 3e 39 d0 ce bd
       0.063763335 0.26138604 0.35873353 -0.10098309
000120 d9 02 89 bd 6e 86 3a bd d7 30 fa 3c 76 38 de 3d
       -0.06689996 -0.04553836 0.030540867 0.10850613
000130 43 3b 25 be d2 23 03 3e 38 6b d5 bd 67 63 d9 3d
       -0.16135888 0.12806633 -0.10420841 0.106146626
000140 9d 41 7a be 29 77 3d 3e 9a 66 93 3e fd bb 78 be
       -0.24439092 0.18502487 0.28789216 -0.24290462
000150 3d fc 16 3e cf 2a e0 bd 2e bb a1 be da 80 4e 3e
       0.14744659 -0.10945665 -0.3158812 0.2016634
000160 9c ec de 3d e8 b5 c7 bd 90 8b 06 3e 8b a7 0a be
       0.108849734 -0.09751493 0.13139176 -0.13540475
000170 06 33 8e 3d 60 ad 60 be df c3 f1 bd 05 d6 90 be
       0.06943326 -0.21941137 -0.118049376 -0.28288284
000180 26 f9 f9 3d 2d 19 4f be fa e3 32 3c 99 fc 09 3d
       0.122057244 -0.20224448 0.010918612 0.03368816
000190 eb a0 b5 be 9c ad 46 be 04 bd 27 3e 63 4b 62 3d
       -0.35474333 -0.19402164 0.16380697 0.055247676
0001a0 19 cb 04 3e f3 23 3f be 67 ad 46 3e 21 c6 f6 3d
       0.129681 -0.18666057 0.19402085 0.12049509
0001b0 14 1f 4c 3e fa b5 30 be a1 f5 0c be 27 de 39 be
       0.1993373 -0.17256919 -0.13765575 -0.1815115
0001c0 89 be 00 bc 1f 0a 16 be ad 7b f4 bd 49 d1 27 be
       -0.007857927 -0.14652298 -0.11937652 -0.1638843
0001d0 08 76 fd bd 08 41 ae bd f7 d2 0e be ca f2 29 3e
       -0.12376028 -0.085084975 -0.13947664 0.16596523
0001e0 7d c8 47 3e ab ff 85 3e 22 aa 0b be 24 dc dd 3d
       0.19510074 0.26171622 -0.1363912 0.10833004
0001f0 19 bb 29 bd fd 98 1a 3e e1 d2 5c 3e 93 9c c8 3e
       -0.041438196 0.15097423 0.21564819 0.39181957
000200 ae a6 04 be ef ea 98 3d be ed be bd aa 95 87 be
       -0.12954208 0.07466685 -0.093226895 -0.26481372
000210 8c a4 34 bc 96 77 08 be b5 ff be 3b fe e3 67 3e
       -0.011025559 -0.13326868 0.0058288225 0.22645566
000220 da e8 7b bd d4 5a 05 be c4 02 3b 3e 26 42 27 3d
       -0.06150136 -0.1302293 0.18262774 0.04083457
000230 3f f4 bb 3b 11 ea a8 be dc 43 10 be 13 e0 54 be
       0.0057359035 -0.32991078 -0.14088386 -0.20788603
000240 64 10 0f 3d d5 03 96 3e a7 2a a8 3c c2 0a 2a be
       0.03492774 0.292998 0.02052815 -0.16605666
000250 40 b5 c7 3d c9 40 67 bd a7 c2 a3 be 84 f6 66 3d
       0.097513676 -0.05645827 -0.31984445 0.05638744
000260 cd f6 7c 3d c7 89 3c 3e 6c 04 f2 bc 7c 8c a4 bd
       0.061758805 0.18411933 -0.029543124 -0.08034608
000270 f3 7d 78 be 0b 95 e6 bd 5d 8a 0b be 7f aa 78 bc
       -0.24266796 -0.112588964 -0.13627 -0.015177368
000280 54 53 a3 bd 30 57 73 be 81 46 56 bd 6f c7 92 3e
       -0.07974878 -0.23763728 -0.05231333 0.2866778
000290 e9 73 6f bc 1e cb c4 3d 57 af ca bd 63 ee 41 3e
       -0.0146150375 0.09609054 -0.09896725 0.18938594
0002a0 c8 08 34 be 64 7f 0f be 49 ff 2d 3e 7d 0b a0 3d
       -0.17581475 -0.1401344 0.16991915 0.07814691
0002b0 0e 31 28 3d 53 0e 2f be da 2a 80 3e 72 69 8a bd
       0.041062407 -0.17095308 0.25032693 -0.06758393
0002c0 a6 f0 a1 3e fa 92 78 3e 72 f1 b5 3d d7 ea 16 be
       0.31628913 0.24274817 0.08883943 -0.14738022
0002d0 b5 fa 30 be 08 9c 85 3e 47 08 9e be 56 95 6b 3e
       -0.17283137 0.26095605 -0.3086569 0.23006186
0002e0 4e e8 3a 3e 1d 88 d1 3c 5b a9 1b be 9e 0b 83 bd
       0.1825268 0.0255776 -0.15201323 -0.063987
0002f0 47 a1 08 be 34 6e e8 3d 4f e0 18 be f5 f9 12 3e
       -0.13342772 0.113491446 -0.14929317 0.14353164
000300 ac be 98 bd 15 b3 c7 3c 9a 03 89 bd 9c 15 29 3e
       -0.07458243 0.024377385 -0.0669014 0.1651215
000310 43 24 2d be 5c b7 0d be 73 84 87 3e 94 be 11 3e
       -0.16908364 -0.13839477 0.26468238 0.14232856
000320 e0 92 2f 3d c9 64 14 bd e7 b0 9b 3c 1e 09 3a be
       0.04286468 -0.03622893 0.019005252 -0.1816754
000330 53 9e a8 3d 91 2a 01 3e 1a 01 66 be e8 41 a1 be
       0.08233323 0.12613894 -0.22461358 -0.31495595
000340 05 15 c6 bb 42 6c 21 3d e5 7b b0 be 55 09 8a be
       -0.006044986 0.039409883 -0.34469524 -0.26960245
000350 0d 73 ab bd 65 35 da bc 32 0d ed 3c 50 95 35 3d
       -0.083715536 -0.026636789 0.028936956 0.04433185
000360 ee b3 61 3e 5e 8b 18 be 00 89 13 3e a6 28 05 bc
       0.22041294 -0.14896914 0.1440773 -0.008127367
000370 6c 38 f2 bd 94 a5 60 be 38 a6 ea bc 84 18 1f be
       -0.11827168 -0.21938163 -0.028643712 -0.15536696
000380 e0 76 43 be c1 f8 4c 3a 55 f1 19 be 35 df d2 3d
       -0.19088316 0.00078190496 -0.15033467 0.102964796
000390 af c8 4e 3c ef b7 35 3e d5 38 85 3c a2 35 84 be
       0.012621089 0.17745946 0.016262451 -0.2582217
0003a0 f6 3b 0e be 2f 86 8e 3e 84 07 06 be da 98 ca 3d
       -0.13890061 0.2783675 -0.13088804 0.09892435
0003b0 e0 3d 2b be 64 5e 0d 3c 20 74 23 be e6 57 95 be
       -0.16722822 0.0086284615 -0.15962267 -0.29168624
0003c0 28 6f d9 bc 00 e6 92 3d 69 e8 8d bd 64 01 4d 3c
       -0.026542261 0.07172775 -0.06929094 0.012512539
0003d0 2e 28 23 3d e9 a7 83 3e c5 0d db 3c f7 f8 88 3d
       0.03983324 0.25714043 0.026739964 0.06688111
0003e0 8a 05 25 be 1d 86 8a 3d ff ad ed 3d 68 ec 12 be
       -0.16115394 0.06763861 0.11605453 -0.14347994
0003f0 bb fe 25 3d ef 61 27 3d d2 b0 a8 be 86 9d 0f 3d
       0.040526133 0.04086488 -0.32947403 0.035062335

model.0.bias f4 [64]
000000 fe b5 71 3d 22 86 8a bd 95 cf 6f 3e af f2 bc 3d
       0.059011452 -0.06763865 0.2341903 0.09225976
000010 3d 05 3b be 82 a8 72 3e 8f 9b c1 3d a6 79 ba 3d
       -0.18263717 0.23697093 0.094534986 0.09105234
000020 ce fb b8 3d b6 d6 6d 3e 8a 9e 1e 3e 0b 70 da 3d
       0.09032403 0.23226437 0.15490165 0.10665902
000030 c0 ba 80 3d fe 27 79 bc a7 93 3b 3e 6f 76 58 3e
       0.0628562 -0.015207289 0.18318044 0.21138929
000040 ff bd c7 3d ae 43 18 be 8a 99 35 be 60 c0 3e bc
       0.09753036 -0.14869568 -0.17734352 -0.011642545
000050 a5 57 82 be 5a 7e 54 3e bc 65 12 3c 3d 4e 53 3e
       -0.25457492 0.20751324 0.008935388 0.20635314
000060 35 95 aa bc ef 5e 04 bd d5 ef 3a be 33 93 59 3e
       -0.0208231 -0.0323171 -0.18255551 0.21247558
000070 bf 5f 86 be 2b ef 6a be 52 d3 18 bd 29 db 82 3e
       -0.26244923 -0.22942798 -0.037310906 0.2555783
000080 10 a7 9f 3e f8 1e cd bd ec 6c 22 3e 6e 43 84 3e
       0.31182146 -0.100156724 0.15861863 0.25832695
000090 9d 77 6c 3e d7 bd 4c 3e c9 50 91 be 3c 0e 33 be
       0.23092504 0.19994293 -0.28381947 -0.17485899
0000a0 42 df a3 3d e4 0a 2d 3e e2 bb bd bd 96 1a 88 3e
       0.080015674 0.16898686 -0.092643514 0.26582783
0000b0 3f a0 fd bd f5 0d 14 3e 8b 2d c2 bd 54 59 22 be
       -0.1238408 0.14458449 -0.09481343 -0.15854388
0000c0 84 5e 76 be ff f4 df bd 02 97 12 3e 8f 37 51 3c
       -0.24059492 -0.10935401 0.14315417 0.012769594
0000d0 4a 88 01 be 4f 57 fe bd 25 d3 0b be e4 1e e3 3d
       -0.12649646 -0.124189965 -0.13654764 0.11089876
0000e0 df e9 6d 3e e2 16 72 3d 9d 68 21 be b0 3d 11 bd
       0.23233746 0.059103854 -0.15762563 -0.03545922
0000f0 9d 9b c0 bd 60 6d 7c be 50 a2 9c 3d 42 88 39 3d
       -0.09404681 -0.24651098 0.07648146 0.04529596

model.2.weight f4 [32, 64]
000000 6a 6f 5d 3d 05 e6 b1 3d 46 c8 47 3c b1 c1 74 3c
       0.05406133 0.08686451 0.012193745 0.014938758
000010 ef 6c 55 bd ed 8b d3 bd fe d0 94 bd 5a 60 4b 3e
       -0.05210584 -0.10329423 -0.072664246 0.19860974
000020 b4 b7 5f bd 8e 7a 36 3d 94 e2 ec bd 57 1f 30 3d
       -0.054618552 0.04455047 -0.11566654 0.042998638
000030 cf e7 c1 bd 48 01 3a bd 81 68 05 be 83 22 b7 3d
       -0.09468042 -0.04541138 -0.13028146 0.089421295
000040 89 fb 87 bb 20 aa 3d bc ce 17 da bd 3a ba 25 3d
       -0.0041498584 -0.0115762055 -0.10649072 0.040460803
000050 eb 32 34 bd 28 7d 7e bd 6e fb c4 bd 6c 8e 20 3e
       -0.04399387 -0.062131077 -0.09618269 0.1567933
000060 ca 69 4d 3c cc a6 3e 3d f7 41 ec 3b 29 e3 61 3d
       0.012537429 0.04654579 0.007210012 0.055148277
000070 52 c5 2b be ef 20 0e 3e 68 6c 93 3d 89 3e db bc
       -0.1677449 0.1387975 0.07198411 -0.026763218
000080 16 b5 c0 3d b4 c5 89 3e d9 a4 41 3e 33 ea 41 3d
       0.094095394 0.26908648 0.1891054 0.04734249
000090 f9 75 0b be 28 f9 5c 3c db db 0c 3e 1e b9 84 3d
       -0.13619222 0.013487138 0.13755743 0.06480621
0000a0 2a d5 04 3a 2d f6 31 bc 63 ed 33 bb fb eb b5 3c
       0.00050671643 -0.010861916 -0.0027454726 0.02220725
0000b0 62 ff b9 3d 59 bf f0 3d f1 81 c3 3c 58 65 6c bb
       0.090819135 0.11755247 0.023865672 -0.0036071148
0000c0 dc 2e 58 3e 62 2b 10 3e 0f 6e 05 ba de 01 35 3e
       0.21111625 0.14079049 -0.00050899474 0.17676494
0000d0 eb de 06 3e 1c d8 7c 3e e2 e2 cf bb 0c 2e dc bd
       0.13170974 0.24691814 -0.006344185 -0.1075097
0000e0 b1 25 b5 3d 8a f5 ed 3d 7b 95 ef 3d d8 e9 db bd
       0.0884508 0.116190985 0.11698433 -0.107379615
0000f0 6d 1a 8c 3e a6 4f 15 3e ba 63 17 3e 56 9f ef 3d
       0.2736391 0.14581165 0.14784136 0.11700313
000100 2a 22 08 3e 4c 4f eb 3d f6 77 c5 3d 60 ec 87 3d
       0.13294283 0.11489734 0.09642021 0.06636882
000110 c6 a4 5d bd 9d 0a 86 bd 9f 5f ce bc 1d 22 c5 3d
       -0.05411222 -0.06544993 -0.02519208 0.09625647
000120 5b b3 ec 3d f4 e9 ab 3c 09 a2 98 bd 0d b1 89 3c
       0.11557647 0.020985581 -0.07452781 0.016808057
000130 b1 59 1e bc 89 22 52 3d ec 45 01 3b d3 51 51 bd
       -0.009664939 0.051302467 0.0019725515 -0.051103424
000140 a7 ef 54 3e 48 0e 1e 3e 4d 0c 60 bd 5d 8a 9b bd
       0.20794545 0.15435135 -0.05469923 -0.0759475
000150 5f 75 d9 3d eb e1 3c 3e 5e ab 56 bd 4e ec 4c 3b
       0.1061809 0.18445556 -0.052409522 0.0031268778
000160 a5 23 ac 3c ee 5e 46 3e 13 6e 7f bc 40 00 a6 bd
       0.02101309 0.1937215 -0.015590209 -0.081055164
000170 91 b1 bd 3b 96 e2 e9 3d 99 23 03 bd fa 82 2f 3e
       0.00578899 0.11420171 -0.03201637 0.17139807
000180 3d 69 02 bc d9 f1 95 3c 9a ba eb 3d 05 9a 76 3d
       -0.007959661 0.018303799 0.11510201 0.06020548
000190 a7 49 5c bd 62 59 8b 3c 2b 0f 24 3e 0e 77 6d 3b
       -0.053781178 0.017010394 0.16021411 0.0036234292
0001a0 81 b9 8f 3c b8 47 35 3d 43 cc 12 3e 3e e3 bf bd
       0.01754451 0.04425785 0.14335732 -0.09369515
0001b0 cc f3 96 3d 15 6d 11 3e bb f4 b3 3d bf aa 2d 3d
       0.07370719 0.14201768 0.08786913 0.042399164
0001c0 d6 39 40 3e 6b 75 ef 3b bf 85 1f bd 43 6b 38 3e
       0.18772063 0.0073076985 -0.03894591 0.18009667
0001d0 6e e4 12 3e 8e 92 7b 3d 08 23 aa 3b e5 37 8a bd
       0.14344952 0.061419062 0.0051921643 -0.06748942
0001e0 a1 57 d7 3d ea 9b 12 3e 90 ce 86 bd 42 b4 0f 3c
       0.10514761 0.14317289 -0.065823674 0.008771004
0001f0 34 4d 5f 3d bf 0a 81 3d 85 0d eb 3d ea e4 88 bd
       0.054516986 0.06300878 0.11477188 -0.06684287
000200 e7 e4 4f bd 2c e6 51 3d a4 6a d7 bd 0e 13 63 3d
       -0.050755408 0.0512449 -0.10518387 0.055438094
000210 b1 58 34 bd 77 49 de 3c 07 de 1d 3e c0 ed 81 3d
       -0.044029895 0.02713464 0.15416728 0.06344175
000220 d7 b1 e1 3d ab 93 1c be ae f0 99 3d ae 12 08 3d
       0.110202484 -0.15290706 0.07516609 0.03322094
000230 c0 db ce 3d 13 9a 15 3d 0b 88 8a 3d 7e 91 23 bd
       0.10100508 0.03652389 0.067642294 -0.039933674
000240 fe 78 64 bd 93 9a b3 3d 3a a3 61 3e c8 66 72 bc
       -0.05577945 0.08769717 0.22034922 -0.014795013
000250 a1 fb cb bd db 5d a6 bd 1c 75 87 3d 8b 4d 01 be
       -0.09960104 -0.0812337 0.06614134 -0.12627237
000260 07 77 d5 bd 5a 18 e9 bc 17 01 02 3c 66 48 86 3d
       -0.10423093 -0.028453995 0.00793483 0.06556778
000270 e8 54 1a 3e 55 74 2d bd 83 da fe 3d 37 35 e7 bd
       0.15071452 -0.04234727 0.124440216 -0.11289447
000280 4b a2 d2 3d e8 b8 69 be 52 cc b8 bd 0b 09 55 3c
       0.10284861 -0.22824442 -0.09023346 0.013002644
000290 73 4e b1 3a a0 78 a3 3c ad b2 c0 bc 97 75 08 3c
       0.0013527408 0.01995498 -0.0235227 0.008328817
0002a0 25 51 d5 bc 8e 06 3b be ec b4 c2 3d 7b 62 2e 3d
       -0.02603967 -0.18264219 0.09507164 0.042574387
0002b0 7a 95 25 3e 94 45 99 bd 41 cd 16 3e 0c 4c d6 ba
       0.16170302 -0.07483974 0.14726736 -0.0016349568
0002c0 bb 7f ec bd 89 84 64 bd da 4e 6b bb 2f 00 93 bc
       -0.115478 -0.055790458 -0.0035905153 -0.017944423
0002d0 33 ea 3e be c4 a5 24 bd 29 91 9e 3c d6 c3 c1 bc
       -0.18644027 -0.04019715 0.019356327 -0.023652952
0002e0 42 d5 f5 3d 5e fb cf bd ea 8e ed 39 3a 4c 3d 3d
       0.12003566 -0.10155366 0.00045310642 0.046215273
0002f0 a1 f3 1d bd ae 0c c4 3d b5 4f e6 bc 26 ea 13 3e
       -0.03856242 0.09572731 -0.02811418 0.1444479
000300 09 bf c1 3c ed e9 c7 bd 3c 44 42 be 68 4a 44 bd
       0.023650663 -0.09761415 -0.18971342 -0.04792252
000310 ce c1 67 bb 32 85 19 3d 7a 57 26 be d7 85 e4 bd
       -0.003536332 0.03748054 -0.16244307 -0.111583404
000320 0c 21 d1 bc aa ba df 3d f3 15 2a 3d 7c 6c 5e bd
       -0.025528453 0.10924275 0.04152484 -0.054302678
000330 4d ef ee 3d 9a 0e c7 3d 26 80 95 3d 58 44 d2 3d
       0.11666737 0.09719582 0.07299833 0.10266942
000340 04 4b 07 3d 97 72 c9 bd e7 dc 7d 3b 64 43 e8 3b
       0.033030525 -0.098363094 0.0038736404 0.0070881117
000350 49 1f 97 3d c5 e6 61 bc b3 82 56 3e 8d 9c cd 3c
       0.07379014 -0.01378793 0.20948295 0.025099063
000360 59 cc b7 bd 57 fd 24 bd 2a 9b 22 bd fe 60 a0 bd
       -0.08974523 -0.040280666 -0.039698757 -0.07831
000370 8f b9 9d 3d b1 f9 16 3d ec 83 68 bd ed d0 85 bd
       0.07701408 0.036859218 -0.056766436 -0.0653399
000380 97 ce 02 3e 90 cf cc bd 93 21 52 bd bd 2a 57 3c
       0.1277412 -0.10000527 -0.05130155 0.013132748
000390 11 95 07 3c 30 a8 78 3d c7 76 32 be c1 23 1c 3d
       0.008275286 0.06070727 -0.17428122 0.038120035
0003a0 6b cd 87 3d 0f 9f 3d bd c1 85 9a 3d 9a c7 34 3e
       0.06630977 -0.04629427 0.07545043 0.17654267
0003b0 53 10 33 bd b3 76 06 bc 70 38 3f 3d c1 c3 4f 3d
       -0.04371674 -0.008207011 0.046684682 0.050723795
0003c0 61 07 bf bd a0 f4 9b 3d 25 19 e0 3d 89 58 99 bc
       -0.09327579 0.07615018 0.10942296 -0.018718975
0003d0 16 15 6a be 07 09 c6 bb 83 7f 47 3d be a6 c4 3c
       -0.22859606 -0.0060435566 0.04870559 0.02400529
0003e0 5c 99 b0 3d 6b 57 8b 3d c0 f2 7a be dd aa 03 ba
       0.08623001 0.06803783 -0.24506664 -0.0005022714
0003f0 2b 7f 97 bd b6 b4 ce 3d 78 52 39 3d f8 eb d1 3b
       -0.07397302 0.100930616 0.045244664 0.0064063035

model.2.bias f4 [32]
000000 df 4b 1a 3d 02 57 ec 3d 7f fe 00 3e 4c 80 9d 3c
       0.037670013 0.11540033 0.12597083 0.019226216
000010 e4 50 88 bd d8 0d bc 3d 7d 69 ba 3d 75 53 0b bd
       -0.06656054 0.09182328 0.091021515 -0.034015138
000020 bd 20 bd 3d 14 6f e0 3c 01 8d 4e bd 19 ed bf 3d
       0.0923476 0.027396716 -0.05042744 0.09371395
000030 cc 1a 06 3e c3 e7 be bc 4d ce 5e 3d a8 aa 44 3e
       0.1309616 -0.023303872 0.054395963 0.19205725
000040 45 87 10 bd 30 a5 0a bd 58 0a ef bc eb 80 f3 3d
       -0.035285253 -0.03384894 -0.029179737 0.118898235
000050 e1 86 2a 3e 3d 07 68 bd 38 1b ab 3a d2 ca 16 bd
       0.16653015 -0.056647528 0.0013054376 -0.03681452
000060 6f f2 06 be a9 b8 58 3b 10 12 01 3c c6 6d 2c 3e
       -0.13178419 0.003306905 0.007877842 0.1683875
000070 33 5a 0f bd bb 09 88 bc 1d f6 bf 3d 53 ab 05 3d
       -0.03499813 -0.016606202 0.09373114 0.03263409

model.4.weight f4 [16, 32]
000000 0f 42 0f 3e 73 72 c9 3d a0 e4 7b 3d 42 ff 92 bd
       0.13990043 0.098362826 0.06149733 -0.07177593
000010 c7 af 80 3d 38 82 04 3e 69 a6 57 3b b3 47 89 bd
       0.06283527 0.129403 0.0032905585 -0.06703129
000020 fa ac a8 bc 46 4e e1 bc 8f 7d 8a 3a 69 46 a2 3d
       -0.020590294 -0.027503144 0.0010565984 0.07923586
000030 b2 90 fc bd 4a 13 23 bd 00 3f 20 be 1a 2f 42 be
       -0.12332286 -0.039813317 -0.15649033 -0.1896328
000040 7d f6 42 3d a8 56 14 be 97 fc be bd 58 41 54 3d
       0.04759835 -0.14486182 -0.093255214 0.05182013
000050 b3 81 43 be a6 4e 26 be d4 6c 1f 3e d2 92 06 3e
       -0.19092445 -0.1624094 0.15568858 0.13141945
000060 c1 15 08 3e dc df 06 bd 52 55 f6 3d c0 70 0d be
       0.13289548 -0.032928333 0.12027992 -0.13812542
000070 ba 9a 0c be 7d 21 9b bd fe fb 79 bd ec dc 1f be
       -0.13730898 -0.07574747 -0.061031334 -0.15611619
000080 d5 d2 f9 bd f6 02 17 be e2 1e 3e bd 25 71 5b 3e
       -0.12198416 -0.14747223 -0.04641617 0.2142988
000090 07 d8 0c 3e 1f c2 c9 3d cf 75 64 be b9 64 15 3e
       0.13754283 0.09851479 -0.22310565 0.14589204
0000a0 c2 74 4b 3d c2 ac 12 bd 93 3e 99 3d 31 d8 bf 3d
       0.049671896 -0.035809286 0.07482638 0.09367407
0000b0 d1 9b 54 3e c1 5e fe bd a3 81 11 3e b5 83 28 ba
       0.20762564 -0.124204166 0.14209609 -0.0006428317
0000c0 04 31 91 3e ae e1 0f 3e 86 99 3b 3e 0f 6a ac bd
       0.28357708 0.14050934 0.18320283 -0.084186666
0000d0 e1 61 06 be 74 82 aa bd c0 0e a6 bd 39 22 ba 3d
       -0.13123275 -0.08325663 -0.08108282 0.09088559
0000e0 c0 93 3d 3d f4 36 8c bd d7 a2 61 bd b9 8e 0a 3e
       0.046283484 -0.06846419 -0.055086937 0.13531007
0000f0 16 b5 28 3b f2 4a 06 be ec a6 cc 3d cb 1d 98 3d
       0.0025742701 -0.13114527 0.09992775 0.074275576
000100 df 8f f9 3d 72 7d 4d 3e 54 ca 5d be 41 e0 88 bb
       0.12185644 0.20067385 -0.21659213 -0.004177124
000110 26 fa 11 be 8e 63 d5 bd 41 9b 8a 3e c0 22 9e bd
       -0.1425558 -0.10419379 0.27071574 -0.07721472
000120 b6 dc d7 3c 7d 6c 76 bd 9c 68 9b bd c0 bb 22 be
       0.02635036 -0.060162056 -0.07588312 -0.15891933
000130 4b 9c 8c be 83 e2 f0 3d 16 0b 17 3e f9 08 c3 bc
       -0.27462992 0.11761954 0.14750323 -0.02380799
000140 26 a5 2d bd 6b 81 95 bd 9f 52 c4 bd 4a 4d 89 3d
       -0.042393826 -0.07300075 -0.09586071 0.06704195
000150 68 cc 84 3d fd 00 06 3e 9b aa 52 3e 57 0e 0f 3e
       0.064843 0.13086314 0.20572893 0.13970314
000160 f1 ae 36 3e f2 d9 6a 3e f0 39 d7 bd c5 28 84 3b
       0.17840172 0.22934702 -0.105090976 0.0040331804
000170 66 f2 02 3d 94 7e 72 be b3 21 39 be dc c8 29 be
       0.03196945 -0.23681098 -0.18079261 -0.16580528
000180 9c 54 8f 3e 58 d5 5e 3e b9 be 18 bd a0 db e4 3d
       0.2799424 0.21761072 -0.037291262 0.11174703
000190 aa f2 44 3d 19 1f 54 3e f9 d3 38 bc 8e 4c 33 3e
       0.048082985 0.20714988 -0.011281007 0.17509672
0001a0 24 8a 08 bd 28 02 e5 3d fd ae 7b be c5 bb 04 3e
       -0.033334866 0.11182052 -0.24578471 0.12962253
0001b0 a0 9e 0c be c3 0c 30 3e 06 39 b1 bd a2 d7 22 3d
       -0.13732386 0.17192368 -0.086534545 0.039756425
0001c0 35 31 31 bc 07 27 fd bd 5c 55 c2 3b 65 56 26 be
       -0.0108149545 -0.123609595 0.005930586 -0.16243894
0001d0 92 83 9c bd 64 21 de 3d 2e 08 ef 3d f8 24 83 bd
       -0.076422825 0.108462125 0.11671482 -0.064035356
0001e0 94 aa ba 3d ca 88 60 3e 1b 51 bc 3d 7c f7 98 bd
       0.091145664 0.21927181 0.09195157 -0.07469079
0001f0 b1 c9 1d 3e 42 0b 0b be 8b a3 4d be 0b c8 eb bd
       0.1540897 -0.13578513 -0.20081918 -0.115127645
000200 e0 89 23 be 8e 2b 7b 3e 2b c3 07 3d fb 21 ef bd
       -0.15970564 0.24528334 0.03314511 -0.11676403
000210 94 83 54 3e 48 b0 41 3e 75 7d 14 be ca 76 29 be
       0.20753318 0.18914902 -0.14500983 -0.1654922
000220 38 15 24 3e 2a 86 8a bb 48 bb e3 3d 77 ed 02 3b
       0.1602372 -0.0042274194 0.111197054 0.0019977966
000230 a6 07 8d 3e 7f f8 00 3e 00 7c 5a bd 8e 22 3a be
       0.27544898 0.12594794 -0.053340912 -0.18177244
000240 ea a6 c7 3c 05 ee 33 bd 04 4a 1b be 4b c4 2e be
       0.024371583 -0.043928165 -0.15164953 -0.17067067
000250 1b 02 82 3e 79 6f bf 3d 5b 18 03 3c 9a b3 a6 bd
       0.2539223 0.093474336 0.008001412 -0.08139725
000260 79 80 23 be 7a db d5 bd 43 23 dc bd 94 35 30 3d
       -0.15966977 -0.104422525 -0.10748913 0.043019846
000270 08 35 ed 3d 2e 9c 89 3e 66 99 52 3c b7 78 27 3e
       0.115823805 0.26876968 0.012853956 0.16354643
000280 0d 9f 64 be 7d 61 b9 bd a0 eb 65 3e 48 83 16 3e
       -0.22326298 -0.090517975 0.22453165 0.14698517
000290 57 7a 88 3d ba 60 9c 3d 79 64 a2 3d c1 db 64 be
       0.066639595 0.07635637 0.0792932 -0.22349454
0002a0 71 c8 92 3d 04 b4 b1 bd a6 89 14 3e 08 80 3a 3e
       0.071671374 -0.086769134 0.14505634 0.18212903
0002b0 57 5d 8b 3e 10 73 82 3d be ee eb 3c 2f bd 21 3e
       0.2721965 0.06369603 0.028800365 0.15794824
0002c0 82 c8 d4 3d 85 3e 00 3e ee 04 04 be 78 d4 a8 3e
       0.10389806 0.1252385 -0.12892506 0.329746
0002d0 c7 ce a6 3d 64 b1 36 be 31 42 19 be 11 5d 71 bb
       0.081449084 -0.17841107 -0.14966656 -0.0036829154
0002e0 37 58 d8 bd a6 19 59 3d 86 34 18 3e a9 7b 59 3e
       -0.10563701 0.053002976 0.14863786 0.21238579
0002f0 23 6d 3d be b0 56 21 bd cf 14 7f 3e 43 b8 90 3d
       -0.18498664 -0.039389312 0.24910282 0.07066395
000300 61 ed e0 3d 81 f1 36 3e 61 7c bc 3d 50 ce 93 bd
       0.109827764 0.17865564 0.09203411 -0.07217085
000310 05 ba 8d 3c 7b 9d 60 3d 54 3d 72 3d 2c 88 d0 3d
       0.017300615 0.054837685 0.05914052 0.10182223
000320 85 9c 43 bd b8 01 15 3e d2 e7 81 be d7 11 1c 3d
       -0.04775669 0.14551437 -0.25372177 0.03810295
000330 ff 17 80 be 23 61 9f 3e 9f 08 1f 3e 6d ba fa 3d
       -0.25018308 0.31128797 0.15530632 0.12242589
000340 15 93 00 bd 09 37 24 be 0d 8b 1c 3e 2a de 86 be
       -0.03139027 -0.16036619 0.15287419 -0.26341373
000350 a5 10 eb 3c dd 83 65 3e a1 8d cd bb 22 d5 ba 3d
       0.02869446 0.22413583 -0.006272987 0.09122683
000360 b4 9c 9a ba 20 8c 31 3e e6 7b 11 3e 9e 61 50 be
       -0.0011795969 0.1733861 0.1420742 -0.20349738
000370 7b 92 82 bc 7f f0 4a be e2 a9 5f be 84 32 4e be
       -0.015938988 -0.19818304 -0.21842149 -0.20136458
000380 e7 5f f6 bc e9 7f ec 3d 3e 76 f2 3a 82 20 85 3d
       -0.030075027 0.115478344 0.0018498374 0.06500341
000390 cd 59 ad bd 0b a5 df 3b e8 88 8d bd 75 7d 3c be
       -0.08464394 0.0068250946 -0.069108784 -0.18407233
0003a0 39 10 8f 3e e3 d2 b8 3d 09 16 aa 3e 43 bd f4 3d
       0.27942064 0.090245984 0.33219936 0.11950161
0003b0 d7 b6 85 3d a3 6c 3a be 12 14 e4 bd 89 54 01 3e
       0.065290146 -0.18205504 -0.111366406 0.12629904
0003c0 d3 34 52 3e 1b 5f dc 3d 51 2a c7 3c 73 39 cb 3d
       0.20527963 0.107603274 0.02431217 0.09923067
0003d0 9f 0c 57 bd 43 b0 07 3d c0 95 31 3c cd 7d ba 3d
       -0.05250227 0.03312708 0.010838926 0.09106026
0003e0 d0 f3 2c be ea 33 46 be b8 fe d3 bd ac b4 86 3e
       -0.16889882 -0.19355741 -0.10351318 0.26309717
0003f0 c9 1a 4d be 66 c0 dd bd e3 30 7a 3e c1 39 0d bc
       -0.20029749 -0.10827713 0.24432711 -0.008619727

model.4.bias f4 [16]
000000 61 b4 0d bd ae 41 f5 bd 47 55 38 3e 82 01 1f 3e
       -0.03459585 -0.11975418 0.1800128 0.15527919
000010 05 47 0a bc 98 6c 59 3d f0 ae 6d 3b cd ff 1f 3e
       -0.008439784 0.05308208 0.00362676 0.15624924
000020 9a b0 1d be fa ac df 3c 25 c2 e6 3d 6c a9 d5 bd
       -0.153994 0.027304161 0.11267499 -0.10432705
000030 bd 09 17 3e b9 38 39 3e c4 66 2c 3e 9d b7 36 be
       0.14749809 0.18088044 0.16836077 -0.1784348

model.6.weight f4 [1, 16]
000000 7b c8 09 be a3 77 10 be 68 0c 7d 3e 53 98 fc 3d
       -0.13455383 -0.14108138 0.24711764 0.12333741
000010 e3 45 87 be 8d 85 80 be 03 db 8a 3e 71 10 6f be
       -0.26420507 -0.2510189 0.27120218 -0.23346116
000020 c5 4a 1b 3e 2c 67 74 3e ec 6e c6 be 48 c0 4f 3e
       0.15165241 0.23867482 -0.38756502 0.20288193
000030 25 75 cb be 39 82 9a 3d d2 e4 c6 be 76 30 7f 3e
       -0.39737812 0.07544369 -0.3884645 0.2492083
