premye rezo/mlp_trades.pt (torch, 16503 bytes, 7 tensors)

model.0.weight f4 [64, 8]
0.07383471 -0.42388192 -0.27270496 -0.3790456 0.21478055 -0.033261735 -0.28850442 0.1817626
0.13385499 0.31752232 0.26811957 -0.123732895 -0.16355668 0.14378211 -0.2765634 -0.00034993887
-0.33695456 -0.288345 0.056389734 0.15041938 -0.25647745 0.086855404 0.0073886295 0.060013145
0.27037424 0.31114396 0.005933978 -0.18469194 -0.04091105 0.30712825 -0.045820937 -0.3163672
-0.23417912 0.27612883 0.34637335 0.08424763 0.34034854 0.2808504 0.25371253 0.15838644
0.03119655 -0.34890544 0.30037194 0.17435715 0.40181363 0.36347196 -0.13656816 -0.3379727
-0.5549298 -0.3743849 -0.08460775 0.19085224 -0.2875057 0.24689242 -0.12355782 -0.30710706
-0.4856542 -0.2947263 -0.12815654 0.22070956 -0.15564838 0.04579478 -0.21859452 0.24684009
-0.29890496 -0.46132457 0.24542181 0.10290941 0.19863558 -0.054520544 0.13013133 -0.1504092
0.4689952 0.33402297 0.24381547 -0.18956698 -0.09433564 0.23324534 -0.11402177 -0.062316477
-0.14327437 0.1708364 -0.31904036 0.028615316 -0.2751051 0.021808347 -0.122035325 -0.2214782
-0.0290423 0.12253643 -0.33960512 -0.33854127 0.35948116 0.07349058 0.08196397 -0.17063472
0.062681 -0.38378653 0.04540118 0.17726485 0.34820515 0.27195993 -0.21704833 -0.29486778
0.48592064 0.113337725 -0.3410834 0.16852999 0.01683671 0.18634506 -0.37360403 0.07585725
-0.46106344 -0.33736113 -0.2713992 0.28097218 0.10583585 -0.36995196 0.14238474 0.2627699
0.08797924 0.00067800423 -0.13627662 -0.03678373 0.11276864 0.12284131 0.3496807 0.057317317
0.03411961 -0.41301146 -0.32243642 0.25900745 0.08204498 0.010962567 0.103426166 0.14214489
-0.0790589 -0.0914383 -0.42144227 0.09041566 0.08492959 0.04105573 -0.26509216 -0.25870723
-0.1563307 0.21271564 -0.33369732 0.023805175 -0.01083452 -0.04580779 -0.33122844 0.30300716
0.2981587 -0.20600984 0.21067844 0.034185708 0.20749313 0.088040754 0.15007325 -0.05650413
0.32839185 0.30370593 0.034720577 0.15522559 0.002354166 0.120192215 -0.2896555 0.2720758
-0.052633386 -0.16165118 0.34810516 -0.058050264 -0.052584086 -0.3646057 -0.24637394 -0.28539783
0.09177412 0.15090679 -0.3001567 -0.0036604656 -0.28842184 0.26661074 -0.13668245 0.08857566
0.3303587 -0.45826912 -0.15240636 0.14471588 0.22973362 -0.14186014 0.13866636 -0.1090634
-0.027094632 0.012859048 0.21969327 -0.23588532 0.23317105 0.21606238 -0.028217213 0.11812472
0.27322268 0.10806452 0.27703866 -0.026684558 0.11713624 0.016141191 0.07783209 0.06318012
-0.29391396 0.12789588 -0.0975517 0.11039975 0.099825956 -0.14579327 -0.30200252 0.3495967
0.15448736 -0.2494862 0.350549 -0.28108138 -0.31844845 -0.24712473 -0.3369138 -0.23556197
0.113280766 0.15761307 0.31016475 0.015747268 -0.1995608 -0.34282824 -0.32911268 0.27621058
0.34174863 0.30753422 -0.476845 -0.20242208 -0.3319059 0.27050874 0.16687308 -0.28572053
0.35433567 0.22894983 -0.18596996 -0.104829766 0.24525838 -0.06800832 0.09346438 0.09201613
0.32778674 -0.058699492 -0.31887442 -0.21947363 0.11776338 -0.18548484 0.077703066 -0.09054521
00000000: a736 973d 0d07 d9be fc9f 8bbe 4412 c2be
00000010: 6fef 5b3e 753d 08bd dab6 93be fa1f 3a3e
00000020: 4811 093e 4992 a23e f846 893e ac67 fdbd
00000030: 677b 27be 9e3b 133e b899 8dbe 0078 b7b9
00000040: 4f85 acbe f5a1 93be ecf8 663d 8a07 1a3e
00000050: 0351 83be 3fe1 b13d 511c f23b 58d0 753d
00000060: 7e6e 8a3e 434e 9f3e d171 c23b e21f 3dbe
00000070: 5892 27bd ea3f 9d3e bcae 3bbd e2fa a1be
00000080: a7cc 6fbe c260 8d3e d957 b13e 058a ac3d
00000090: 2a42 ae3e a0cb 8f3e 9ce6 813e 0e30 223e
000000a0: e88f ff3c bca3 b2be 5aca 993e ae8a 323e
000000b0: 84ba cd3e ff18 ba3e 86d8 0bbe c20a adbe
000000c0: e10f 0ebf 61af bfbe d446 adbd c56e 433e
000000d0: f233 93be 5ed1 7c3e e20b fdbd 233d 9dbe
000000e0: aba7 f8be 5ee6 96be 783b 03be b001 623e
000000f0: 4a62 1fbe 4f93 3b3d 3ed7 5fbe a6c3 7c3e
00000100: 120a 99be bc32 ecbe db4f 7b3e 2bc2 d23d
00000110: 2067 4b3e ef50 5fbd 2641 053e df04 1abe
00000120: 2420 f03e 0f05 ab3e c3aa 793e d91d 42be
00000130: 0b33 c1bd ded7 6e3e 3f84 e9bd 903f 7fbd
00000140: 84b6 12be bdef 2e3e 4259 a3be ab6a ea3c
00000150: 93da 8cbe 6ba7 b23c a8ed f9bd 2ecb 62be
00000160: 1eea edbc 61f4 fa3d b9e0 adbe 4855 adbe
00000170: ea0d b83e 3b82 963d badc a73d deba 2ebe
00000180: e55e 803d ab7f c4be 96f6 393d eb84 353e
00000190: f247 b23e 553e 8b3e eb41 5ebe e9f8 96be
000001a0: 97ca f83e 9c1d e83d 7ca2 aebe 2093 2c3e
000001b0: 24ed 893c 3dd1 3e3e 0749 bfbe 0c5b 9b3d
000001c0: 8210 ecbe 99ba acbe d6f4 8abe 96db 8f3e
000001d0: 77c0 d83d 586a bdbe 4ecd 113e c789 863e
000001e0: 762e b43d 18bc 313a 198c 0bbe 89aa 16bd
000001f0: 3ff3 e63d 3a94 fb3d 5909 b33e 90c5 6a3d
00000200: 01c1 0b3d 3d76 d3be 6316 a5be a09c 843e
00000210: 3307 a83d 579c 333c 19d1 d33d 6e8e 113e
00000220: a2e9 a1bd 0144 bbbd 48c7 d7be d82b b93d
00000230: 91ef ad3d 0e2a 283d 29ba 87be 4675 84be
00000240: 2815 20be 21d2 593e 60da aabe 1203 c33c
00000250: 4583 31bc f3a0 3bbd c696 a9be c123 9b3e
00000260: 42a8 983e 3ef4 52be 17bc 573e 5006 0c3d
00000270: 1479 543e b64e b43d cdac 193e e070 67bd
00000280: fa22 a83e 587f 9b3e 2a37 0e3d 75f3 1e3e
00000290: 5a48 1a3b 5627 f63d ba4d 94be 854d 8b3e
000002a0: 1b96 57bd e387 25be d73a b23e 1dc6 6dbd
000002b0: 6962 57bd 99ad babe 7349 7cbe aa1f 92be
000002c0: 12f4 bb3d 4f87 1a3e 24ae 99be 6ce4 6fbb
000002d0: 07ac 93be 3481 883e 7cf6 0bbe 2867 b53d
000002e0: c724 a93e 40a2 eabe 6a10 1cbe 6630 143e
000002f0: 4a3f 6b3e c943 11be 8efe 0d3e a25c dfbd
00000300: 90f5 ddbc c2ae 523c 46f7 603e ec8b 71be
00000310: 64c4 6e3e 753f 5d3e c927 e7bc 60eb f13d
00000320: d8e3 8b3e ee50 dd3d 03d8 8d3e 9399 dabc
00000330: 20e5 ef3d 883a 843c 6e66 9f3d 9464 813d
00000340: e47b 96be 23f7 023e 30c9 c7bd 4419 e23d
00000350: 8d71 cc3d d54a 15be 13a0 9abe 57fe b23e
00000360: ef31 1e3e 4f79 7fbe 297b b33e e6e9 8fbe
00000370: ad0b a3be 440e 7dbe f77f acbe 2837 71be
00000380: bfff e73d 5265 213e eacd 9e3e 6a00 813c
00000390: ab59 4cbe 2f87 afbe 7581 a8be 796b 8d3e
000003a0: adf9 ae3e 2075 9d3e 0725 f4be bc47 4fbe
000003b0: 92ef a9be 1f80 8a3e c7e0 2a3e f649 92be
000003c0: 7c6b b53e d371 6a3e e96e 3ebe fdb0 d6bd
000003d0: 0325 7b3e f247 8bbd 416a bf3d f472 bc3d
000003e0: aad3 a73e e16e 70bd 8243 a3be b2bd 60be
000003f0: ed2d f13d bdef 3dbe c922 9f3d c46f b9bd

model.0.bias f4 [64]
-0.21638122 0.27591097 -0.12964292 0.1543011 0.022908242 -0.08624616 0.12472163 0.051283237
-0.16912605 -0.25360605 0.29649124 -0.12100724 -0.36477828 -0.13018756 0.24287342 -0.2619515
-0.048103277 0.28270516 0.22824039 0.14097545 0.19837141 0.36616203 -0.28546757 -0.1254736
0.42049858 0.3015469 -0.019049557 0.20848799 0.24292678 -0.2565632 0.25796312 0.17359403
0.00060159044 0.010762277 -0.09200965 0.3523566 -0.25099945 0.02827745 0.44905964 0.15657248
0.089400515 0.3913894 0.42505914 0.4300171 0.054311264 -0.24405968 0.015601635 0.31769112
0.46167016 0.24162106 -0.13542382 -0.083507046 0.23935714 0.38795936 -0.035586517 -0.16111097
-0.008498797 0.36737093 -0.16507693 -0.0772972 0.0048060315 0.13223705 0.088795565 -0.035077218
00000000: 0a93 5dbe 3444 8d3e 1dc1 04be 1c01 1e3e
00000010: 11aa bb3c d4a1 b0bd 0e6e ff3d 5f0e 523d
00000020: 612f 2dbe a7d8 81be b3cd 973e a5d2 f7bd
00000030: 38c4 babe e34f 05be cfb3 783e 821e 86be
00000040: f107 45bd bbbe 903e d9b7 693e de5b 103e
00000050: e021 4b3e 9779 bb3e ce28 92be 277c 00be
00000060: 974b d73e 5b64 9a3e d10d 9cbc e07d 553e
00000070: ccc1 783e 405c 83be be13 843e a2c2 313e
00000080: 0db4 1d3a 4354 303c 8e6f bcbd 1668 b43e
00000090: 0083 80be 1ca6 e73c 25eb e53e 8954 203e
000000a0: 9e17 b73d 3164 c83e 5aa1 d93e 342b dc3e
000000b0: 7d75 5e3d c8ea 79be 009e 7f3c 69a8 a23e
000000c0: 0860 ec3e 836b 773e 8bac 0abe be05 abbd
000000d0: 0a1a 753e 9ca2 c63e 2bc3 11bd 46fa 24be
000000e0: 8a3e 0bbc 0b18 bc3e ed09 29be ff4d 9ebd
000000f0: ea7b 9d3b 2669 073e 73da b53d 21ad 0fbd

model.2.weight f4 [32, 64]
0.0070381523 -0.05986368 0.30908364 0.1791182 0.07230995 0.007648912 0.21267304 0.19811009
0.0445508 0.17023632 0.12868538 0.07271586 -0.22883832 0.10067227 0.023608573 -0.13421196
0.00327761 0.15675886 0.020260511 0.06980733 0.08163535 -0.05682908 0.0725502 -0.0978637
0.1625541 -0.0328032 -0.06969943 0.05764352 -0.13080524 0.26584223 0.21965097 0.13467813
-0.013430981 -0.030785289 -0.02519386 0.07480708 -0.16100867 0.11305923 0.05739281 0.11848895
0.013527905 -0.02886197 0.018182538 0.00073226355 0.018706571 -0.038447037 0.12118162 -0.07577163
0.17670658 -0.044727895 -0.008483845 0.005355998 -0.071966186 0.13749482 -0.061577823 -0.19796991
0.05268048 0.021033905 0.014523902 0.22994375 -0.06634773 -0.095875055 0.12588865 0.15787826
0.015022846 0.06864995 -0.11941723 -0.014952505 0.05332591 -0.12945154 -0.03928125 -0.13074628
-0.14671385 0.019178685 0.09472584 0.06384197 -0.25561458 -0.047247425 -0.002961 0.07046934
0.018422587 0.031249806 0.121645324 0.007367791 0.16959146 -0.10001161 0.10866252 0.045943532
-0.10662557 -0.077508055 -0.009792092 0.003114017 -0.02853855 0.0034258054 0.20159067 0.0037427272
-0.022298949 0.1453597 -0.11618004 0.039913017 0.022555444 0.015723208 0.09183874 0.13121517
0.08681335 0.11645804 0.12463828 -0.042403407 0.14020133 -0.17645587 -0.21646178 0.13206726
-0.058570586 -0.076902546 0.057280667 0.09633508 0.13676213 0.0012253702 -0.057243872 -0.07333106
-0.11529992 0.014133813 -0.003653975 -0.16177948 -0.03586728 0.07225096 -0.22084396 0.05946734
-0.067275345 0.014677779 -0.15070671 0.08618917 0.08034669 -0.01624592 0.0098086 -0.045091648
-0.25547487 -0.06180305 -0.054786667 0.09625881 -0.17537078 0.0887387 -0.16849945 0.059205588
-0.029682403 -0.10627342 -0.21353781 0.011254744 -0.026421152 0.096053645 -0.07643974 -0.21710806
-0.06784648 -0.049232792 -0.15309139 0.046816938 0.12780137 -0.08370654 -0.049331497 -0.08893456
-0.031538073 -0.19891258 0.012217412 0.017929856 -0.19443646 -0.033885896 -0.14579779 0.068268634
-0.0285616 -0.047923833 0.09321343 -0.11763752 0.16844341 0.15162002 -0.29529563 0.023671627
0.029242426 0.10082606 -0.098768085 -0.20037293 0.1559284 0.054673392 -0.0019163911 0.1009612
-0.054605525 0.1189697 -0.09454402 -0.0993859 0.007387849 -0.037430186 -0.123741575 -0.057952374
-0.23897047 0.020947272 -0.039304562 0.15830107 -0.03385789 -0.17678301 -0.14061923 -0.21993347
-0.11974495 -0.029170433 0.072436094 0.058597453 -0.1386995 0.18954216 0.07816693 -0.04966027
-0.07743129 0.14903507 0.112119034 0.06347156 0.25446874 -0.13484687 0.22356124 -0.00036985765
-0.08738836 0.09204306 -0.048273105 0.08720237 0.05362594 0.25524524 0.16783309 0.13790333
-0.16342165 0.120634966 -0.04827063 0.021737607 0.020111697 0.05527838 -0.07890684 0.03691947
0.05763722 0.08956763 0.031606525 0.1926292 0.16205965 -0.18596904 -0.12551485 0.0016806438
-0.109008625 0.13295592 0.09303575 0.022890083 0.021818448 -0.05666986 0.1324656 -0.1411012
0.042762067 -0.023292806 0.031133711 -0.22615157 -0.10275149 0.0745235 -0.11724772 0.02517303
00000000: 4da0 e63b 9e33 75bd 3640 9e3e c36a 373e
00000010: 3d17 943d b9a3 fa3b f6c6 593e 5fdd 4a3e
00000020: e67a 363d 6e52 2e3e 1ac6 033e 0eec 943d
00000030: 9854 6abe 432d ce3d c466 c13c dc6e 09be
00000040: 2ccd 563b 6585 203e 5ff9 a53c 25f7 8e3d
00000050: 6f30 a73d 9cc5 68bd 3395 943d c36c c8bd
00000060: 9574 263e a65c 06bd 93be 8ebd 9d1b 6c3d
00000070: cff1 05be 791c 883e 2fec 603e 10e9 093e
00000080: 9e0d 5cbc 6e31 fcbc 5b63 cebc 7434 993d
00000090: 75df 24be 998b e73d b914 6b3d 56aa f23d
000000a0: 25a4 5d3c f06f ecbc 8cf3 943c 60f5 3f3a
000000b0: 863e 993c a47a 1dbd 122e f83d 282e 9bbd
000000c0: 92f2 343e 9934 37bd d3ff 0abc 5e81 af3b
000000d0: 0263 93bd 71cb 0c3e 0739 7cbd a0b8 4abe
000000e0: 7dc7 573d 4c4f ac3c a9f5 6d3c 6076 6b3e
000000f0: 52e1 87bd 245a c4bd f4e8 003e d7aa 213e
00000100: 6222 763c 5898 8c3d 0591 f4bd 5afb 74bc
00000110: 456c 5a3d f28e 04be 60e5 20bd 5ae2 05be
00000120: 283c 16be 9e1c 9d3c 9fff c13d 94bf 823d
00000130: eadf 82be 8486 41bd 560d 42bb 3b52 903d
00000140: f7ea 963c 98ff ff3c 2f21 f93d 836d f13b
00000150: 62a9 2d3e e3d2 ccbd 758a de3d 492f 3c3d
00000160: 825e dabd 8bbc 9ebd 036f 20bc 8914 4c3b
00000170: adc9 e9bc 7a83 603b c96d 4e3e 8b48 753b
00000180: 49ac b6bc 2cd9 143e cdef edbd d57b 233d
00000190: 32c6 b83c f5cd 803c f315 bc3d 455d 063e
000001a0: 33cb b13d 8e81 ee3d 5b42 ff3d 32af 2dbd
000001b0: f090 0f3e d9b0 34be 28a8 5dbe a43c 073e
000001c0: b6e7 6fbd 157f 9dbd 229f 6a3d 544b c53d
000001d0: 5f0b 0c3e 9a9c a03a 8d78 6abd 982e 96bd
000001e0: 5d22 ecbd 8291 673c 8777 6fbb 85a9 25be
000001f0: 92e9 12bd 50f8 933d eb24 62be 0794 733d
00000200: a8c7 89bd 117b 703c dc52 1abe f383 b03d
00000210: ce8c a43d 2a16 85bc 40b4 203c 05b2 38bd
00000220: 9acd 82be 3225 7dbd fc67 60bd 5723 c53d
00000230: 6694 33be a3bc b53d 1f8b 2cbe 8f81 723d
00000240: 8328 f3bc e1a5 d9bd a8a9 5abe d165 383c
00000250: 2c71 d8bc c6b7 c43d 708c 9cbd 9351 5ebe
00000260: 18f3 8abd 53a8 49bd fdc3 1cbe 1ec3 3f3d
00000270: 5dde 023e 566e abbd d30f 4abd 5323 b6bd
00000280: 112e 01bd bdaf 4bbe 8a2b 483c a2e1 923c
00000290: 5a1a 47be f0cb 0abd 044c 15be 6dd0 8b3d
000002a0: 04fa e9bc c84b 44bd afe6 be3d f1eb f0bd
000002b0: 6e7c 2c3e 4742 1b3e fd30 97be 00eb c13c
000002c0: d08d ef3c e57d ce3d ec46 cabd 902e 4dbe
000002d0: b2ab 1f3e 35f1 5f3d 6a2f fbba bfc4 ce3d
000002e0: 0baa 5fbd 63a6 f33d 4ca0 c1bd d68a cbbd
000002f0: c515 f23b 6550 19bd 396c fdbd 785f 6dbd
00000300: adb4 74be 9d99 ab3c d2fd 20bd ad19 223e
00000310: 92ae 0abd 9b06 35be 7dfe 0fbe 3d36 61be
00000320: d73c f5bd d5f6 eebc 6059 943d e203 703d
00000330: 3e07 0ebe 5717 423e fc15 a03d 9168 4bbd
00000340: 4c94 9ebd a69c 183e aa9e e53d 61fd 813d
00000350: ba49 823e 4c15 0abe 3ded 643e 74e9 c1b9
00000360: abf8 b2bd 1281 bc3d 05ba 45bd 2897 b23d
00000370: e0a6 5b3d 81af 823e 70dc 2b3e 8836 0d3e
00000380: 0158 27be 770f f73d 6db7 45bd 1113 b23c
00000390: 49c1 a43c 956b 623d e999 a1bd df38 173d
000003a0: 0115 6c3d 3c6f b73d d875 013d 9740 453e
000003b0: f7f2 253e ab6e 3ebe f786 00be 0c49 dc3a
000003c0: ea3f dfbd 9925 083e 8789 be3d fc83 bb3c
000003d0: 9abc b23c a81e 68bd 10a5 073e d57c 10be
000003e0: 4727 2f3d 8ed0 bebc 200c ff3c 4794 67be
000003f0: 606f d2bd c79f 983d 931f f0bd ac37 ce3c

model.2.bias f4 [32]
0.023091113 0.01668948 0.011183185 0.040060733 0.18057576 0.030436447 0.006436988 -0.13095324
0.038880125 0.022857055 0.019402927 -0.115105286 -0.056052465 0.14901263 0.13238299 -0.039402004
-0.03281473 -0.022202885 0.03491139 0.16013895 0.09011569 0.1154056 0.051352076 -0.030445283
-0.010056871 0.029623242 -0.06734421 -0.08321578 -0.058282223 -0.05355924 0.01564025 -0.0025703192
00000000: 9329 bd3c 60b8 883c ad39 373c b916 243d
00000010: dae8 383e db55 f93c 5eed d23b 9b18 06be
00000020: c440 1f3d b83e bb3c e3f2 9e3c 52bc ebbd
00000030: 4597 65bd c496 183e 688f 073e ff63 21bd
00000040: bd68 06bd d3e2 b5bc 3fff 0e3d 77fb 233e
00000050: 938e b83d c559 ec3d 8e56 523d 6368 f9bc
00000060: 93c5 24bc 71ac f23c c3eb 89bd 096d aabd
00000070: 57b9 6ebd ef60 5bbd fb1f 803c cd72 28bb

model.4.weight f4 [16, 32]
0.19998787 0.27869824 0.045250118 0.19047265 0.33610317 -0.1578202 -0.07395751 0.11375318
0.285306 -0.0002502203 0.12797609 -0.3326186 0.17576031 0.028191011 -0.040727846 0.06697117
0.085758284 0.17852043 -0.021983923 0.1123573 0.10621619 -0.039033297 0.17746106 -0.0662781
0.22546424 -0.005373746 0.07279121 -0.18467394 0.23439361 0.09425266 0.10971992 0.2792494
0.04295208 0.12508638 -0.012306068 0.0717457 0.13308021 -0.007015033 -0.15326644 0.09174205
-0.1398333 -0.12760234 0.13229729 -2.9641193e-05 -0.07119625 0.07404939 -0.2028757 0.12671807
0.16198029 -0.19838966 -0.07276672 -0.06147155 0.09624476 -0.047304854 -0.10960819 0.09664253
-0.07077985 -0.14611544 0.016808758 0.118894964 -0.106699996 0.052228384 0.09488648 -0.11501004
-0.14792773 0.055732165 0.13589743 0.057143718 -0.1605697 0.15796117 0.14268732 0.015137321
0.05627543 -0.16112511 -0.07824972 -0.008276494 -0.0015909643 0.042155445 0.10984934 -0.029367331
-0.12411661 -0.16702606 -0.07027036 -0.14541706 -0.123744465 -0.005813899 -0.20501387 0.027104462
0.010585275 -0.016775383 0.07219322 0.07856888 0.014438883 -0.14163694 -0.07446769 -0.1605934
0.13617459 0.28506777 -0.14030915 0.16187274 -0.022669185 0.03856671 -0.13150471 -0.12015453
-0.067942955 -0.10384381 -0.044481743 -0.22391053 0.098056786 0.045737136 0.041697804 -0.10206682
0.075857826 0.15762389 -0.31670177 -0.026936086 0.0694428 -0.06531084 0.10612737 0.020668497
0.12908423 0.10036938 -0.14441705 -0.3730818 0.3592013 0.061571453 0.091449484 0.18215404
0.13421272 -0.035752937 -0.10341131 0.21729203 0.083263695 -0.0117990095 -0.13992411 0.04539629
-0.03590673 0.16238342 0.21297148 -0.34624976 0.28227168 0.20027788 0.10439474 -0.2251817
0.056107882 0.19722615 -0.1282432 0.088508494 0.20865497 0.22395468 0.2508387 0.10684554
0.20110512 0.2433065 -0.15276448 -0.2793411 0.39858174 0.046464667 0.21160041 -0.08476073
0.15918402 0.13330343 -0.09024752 0.3126814 0.23942311 0.052791324 0.13599584 -0.11873182
0.11476954 0.04159966 -0.022295985 -0.32678702 0.28904358 0.09918953 0.120647706 -0.11372989
0.26863924 0.17399368 -0.19734357 0.030071493 -0.007742302 0.21436536 -0.06818255 0.07857356
0.17073892 0.21750611 0.13664812 -0.3091709 0.26633582 0.037846398 0.15674627 0.09881672
-0.13385256 0.13978396 -0.043977704 0.038737886 0.09350105 0.15375973 0.043829665 0.09807025
-0.067674965 -0.15065292 -0.17124338 -0.02963391 -0.10185595 0.112144 -0.043911714 0.07550568
0.01017691 -0.037677016 -0.097386554 -0.15657216 0.032714013 -0.14811651 0.019523278 0.14729579
0.007308919 -0.01773721 0.17119065 -0.16468403 -0.13010184 -0.16579719 -0.026610017 0.03559519
-0.08409424 -0.05538609 -0.01799664 0.16352916 -0.15065913 0.061520953 -0.09080677 0.07031492
-0.0056964033 -0.1364112 -0.0724609 0.089341134 -0.029783845 -0.13848229 -0.12971996 -0.1779581
0.15474638 0.027699076 -0.11051803 -0.14045347 0.06745584 -0.12580332 0.11388118 0.11638554
0.07425372 -0.062128723 0.16412236 0.12011111 0.049099203 -0.04370579 -0.17428516 -0.12186562
00000000: 9fc9 4c3e 89b1 8e3e 3058 393d 430b 433e
00000010: b715 ac3e 9e9b 21be 0977 97bd 6df7 e83d
00000020: a113 923e 0030 83b9 2a0c 033e fc4c aabe
00000030: 83fa 333e d6f0 e63c 3ed2 26bd 2e28 893d
00000040: 0aa2 af3d 0fce 363e a117 b4bc 961b e63d
00000050: e087 d93d 61e1 1fbd 5ab8 353e d0bc 87bd
00000060: 19e0 663e 4016 b0bb 8f13 953d 2a1b 3dbe
00000070: e104 703e 8a07 c13d d6b4 e03d c7f9 8e3e
00000080: 85ee 2f3d a516 003e 649f 49bc 69ef 923d
00000090: 2e46 083e 5dde e5bb e1f1 1cbe 42e3 bb3d
000000a0: 7630 0fbe 30aa 02be f178 073e faa5 f8b7
000000b0: 57cf 91bd 35a7 973d a6be 4fbe 62c2 013e
000000c0: 29de 253e a926 4bbe b806 95bd 98c9 7bbd
000000d0: f91b c53d bcc2 41bd 427a e0bd 85ec c53d
000000e0: 07f5 90bd 499f 15be 85b2 893c 347f f33d
000000f0: 8785 dabd 6eed 553d d853 c23d 628a ebbd
00000100: 5e7a 17be 6947 643d b228 0b3e 880f 6a3d
00000110: 626c 24be 93c0 213e a01c 123e 8702 783c
00000120: 1181 663d fbfd 24be 6441 a0bd 229a 07bc
00000130: e787 d0ba 30ab 2c3d b1f8 e03d c293 f0bc
00000140: d930 febd e108 2bbe e8e9 8fbd 36e8 14be
00000150: bd6d fdbd 8582 bebb 28ef 51be 2d0a de3c
00000160: dc6d 2d3c 876c 89bc 0ada 933d b9e8 a03d
00000170: 1191 6c3c 4609 11be 8482 98bd 9972 24be
00000180: 5a71 0b3e 67f4 913e 34ad 0fbe f8c1 253e
00000190: bab4 b9bc 20f8 1d3d 2ca9 06be 9413 f6bd
000001a0: ad25 8bbd 10ac d4bd 7d32 36bd cd48 65be
000001b0: ffd1 c83d dd56 3b3d 51cb 2a3d 6908 d1bd
000001c0: 595b 9b3d 2868 213e bc26 a2be 11a9 dcbc
000001d0: 0738 8e3d b1c1 85bd 4e59 d93d fb50 a93c
000001e0: a82e 043e 768e cd3d 10e2 13be 9404 bfbe
000001f0: 3ce9 b73e 5932 7c3d de49 bb3d 9786 3a3e
00000200: 0f6f 093e ac71 12bd 4fc9 d3bd cd81 5e3e
00000210: 2886 aa3d a250 41bc 4448 0fbe 76f1 393d
00000220: ef12 13bd d747 263e 3215 5a3e a647 b1be
00000230: ea85 903e a515 4d3e e9cc d53d 0896 66be
00000240: 61d1 653d a7f5 493e 2f52 03be f143 b53d
00000250: a6a9 553e 6054 653e ee6d 803e d6d1 da3d
00000260: 80ee 4d3e 5725 793e 4b6e 1cbe cc05 8fbe
00000270: e812 cc3e bc51 3e3d c7ad 583e 0997 adbd
00000280: 2301 233e b280 083e b1d3 b8bd c717 a03e
00000290: 552b 753e b73b 583d 7e42 0b3e ab29 f3bd
000002a0: 4b0c eb3d 6864 2a3d 12a6 b6bc a150 a7be
000002b0: 85fd 933e e123 cb3d 2516 f73d 37eb e8bd
000002c0: 158b 893e 662b 323e 6f14 4abe 7e58 f63c
000002d0: 23b3 fdbb 9882 5b3e 4ba3 8bbd 2deb a03d
000002e0: 2fd6 2e3e ecb9 5e3e 7ced 0b3e a64b 9ebe
000002f0: 2b5d 883e d304 1b3d 1882 203e 6c60 ca3d
00000300: a510 09be 8723 0f3e f721 34bd 9eab 1e3d
00000310: 7a7d bf3d 3173 1d3e bc86 333d 0ed9 c83d
00000320: 2c99 8abd c244 1abe 6d5a 2fbe d0c2 f2bc
00000330: da99 d0bd c1ab e53d c5dc 33bd b9a2 9a3d
00000340: 0ebd 263c 3753 1abd 9a72 c7bd 7454 20be
00000350: 21ff 053d dbab 17be 48ef 9f3c b5d4 163e
00000360: a87f ef3b a04d 91bc 9a4c 2f3e eea2 28be
00000370: 6b39 05be bdc6 29be 40fd d9bc 43cc 113d
00000380: 9a39 acbd 86dc 62bd b16d 93bc 3074 273e
00000390: 6346 1abe 65fd 7b3d e6f8 b9bd 4501 903d
000003a0: e5a8 babb 61af 0bbe 6166 94bd 7cf8 b63d
000003b0: 40fd f3bc 4dce 0dbe 4fd5 04be a63a 36be
000003c0: d675 1e3e 2ce9 e23c 4757 e2bd 09d3 0fbe
000003d0: 4a26 8a3d 96d2 00be 893a e93d 8b5b ee3d
000003e0: 5612 983d b07a 7ebd b10f 283e d0fc f53d
000003f0: 3f1c 493d d804 33bd cf77 32be af94 f9bd

model.4.bias f4 [16]
0.04269947 -0.07138058 0.04696385 0.22412775 -0.01825875 -0.014473561 -0.14404443 0.13135715
-0.022246763 -0.11990119 -0.058573097 -0.027888974 0.061133932 -0.049730014 -0.13300729 -0.04361601
00000000: a4e5 2e3d fb2f 92bd 2a5d 403d bf81 653e
00000010: 6093 95bc 8422 6dbc 6280 13be 7d82 063e
00000020: d83e b6bc c18e f5bd 58ea 6fbd 6b77 e4bc
00000030: 9367 7a3d b3b1 4bbd 1033 08be b4a6 32bd

model.6.weight f4 [1, 16]
-0.12459202 0.014852659 0.09003856 -0.112576425 -0.30818123 -0.3428156 0.2145417 0.21327488
0.117974736 -0.08027968 -0.33118203 -0.22047943 0.054526724 0.03260844 0.24567547 0.08614762
00000000: 1a2a ffbd 9158 733c 2366 b83d 788e e6bd
00000010: eec9 9dbe 8785 afbe d2b0 5b3e bb64 5a3e
00000020: bd9c f13d ac69 a4bd b190 a9be 5cc5 61be
00000030: 6a57 5f3d 6d90 053d 5a92 7b3e 2a6e b03d
