Antrènan Bot Ichimoku/mlp_trades.onnx (onnx, 20112 bytes, 15 tensors)

model.0.weight f4 [64, 23]
000000 b4 66 5b 3e 93 88 15 bd 22 88 50 be b3 b6 9f bd
       0.21425897 -0.0365072 -0.2036443 -0.07798519
000010 5b 90 db 3c 3e c9 58 3d 07 19 78 3d 88 00 4c a6
       0.026802232 0.052926295 0.060570743 -7.077744e-16
000020 27 b0 ee bd 8f a7 c1 bd 3c 33 a3 3d 62 56 0e be
       -0.11654692 -0.094557874 0.079687566 -0.1390014
000030 f1 f8 ce bd 61 73 38 3e 94 d9 c3 bc 9c f5 45 3b
       -0.101060756 0.18012764 -0.02390746 0.003020621
000040 a5 8d a6 3d 98 da 28 be 49 8b ff bc 1a b5 e1 bc
       0.08132485 -0.16489637 -0.031194346 -0.027552176
000050 2b f8 86 bd f6 ad cb 3d 5d d5 78 3d 5a c9 4a bd
       -0.06590303 0.0994529 0.060750354 -0.04950843
000060 a9 c1 93 3d e2 10 46 be 86 0e 14 bc 9a b2 c1 3d
       0.07214672 -0.19342378 -0.009036666 0.09457894
000070 ed 39 8d bd 4b 34 d0 bd 6f d3 2e ad 15 b2 ba bd
       -0.06895814 -0.10166224 -9.937703e-12 -0.09115998
000080 67 a9 3c 3e 34 42 65 3d 10 4c 18 be 38 c6 24 bd
       0.18423997 0.05597134 -0.14872766 -0.0402281
000090 75 0c 32 3e b4 e7 aa bd 1d 4f 12 be d9 5c 22 3d
       0.17387564 -0.08344975 -0.14287992 0.039639328
0000a0 23 9f 47 3e 01 d3 51 3d 70 32 d1 bb 3a e0 8d 3b
       0.194943 0.05122662 -0.0063841864 0.0043297084
0000b0 47 d9 f4 bc 60 63 29 3e e1 d5 8c be 9d 32 87 bd
       -0.029888762 0.16541815 -0.27506927 -0.066014506
0000c0 87 3a 2c 3e 2d a5 0c 3d 43 3a 11 3c 08 32 11 bb
       0.16819201 0.03433721 0.008863988 -0.0022155065
0000d0 5d 09 16 bd 4d 0b c7 80 0e ef e1 bd 1d c6 3b be
       -0.036630023 -1.8279318e-38 -0.11031924 -0.18337293
0000e0 3b 63 a7 3d 92 d1 44 3e be 0c 59 3e 07 bd 14 3e
       0.081732236 0.1922057 0.21196267 0.14525233
0000f0 b1 d2 11 3e dd 5a d2 bc d2 c9 c6 bd e8 dd a2 bd
       0.14240529 -0.025678093 -0.09706463 -0.079524815
000100 3e 49 bb 3d 0a 09 dc 3c 8f 78 7a bd 42 fb 37 3e
       0.09144829 0.026859779 -0.06115013 0.17966941
000110 26 62 1c 3e d1 38 dc 3d 1f d3 ae 3d 57 20 b8 3d
       0.15271816 0.10753024 0.08536362 0.08990543
000120 a3 b8 11 3d 71 ac d1 3d e6 70 2a be 3a 81 91 3c
       0.035576474 0.10237969 -0.1664463 0.017761815
000130 e0 99 c3 81 27 94 fc bd 87 36 05 3c 47 1c cc bd
       -7.1852487e-38 -0.12332945 0.008130676 -0.09966331
000140 92 30 47 3e f9 d7 87 3d 2f 40 81 3d f1 2a 6e be
       0.19452122 0.066329904 0.0631107 -0.23258568
000150 f6 96 a0 bd 5a 6a 34 be ff e0 77 bd 77 a2 c0 bd
       -0.078412935 -0.17618695 -0.060517307 -0.09405988
000160 77 26 14 3d 2e 09 99 bd bb 51 c0 be 08 1d 12 3e
       0.036169495 -0.07472454 -0.37562355 0.14268887
000170 03 64 41 3e 7e 06 38 be 51 4d d9 bb 26 84 b5 3d
       0.18885808 -0.17971227 -0.0066315313 0.08863096
000180 81 7a 6d bd 63 92 4c 3e 2b f8 f0 bb 90 38 fa 01
       -0.057978157 0.19977717 -0.0073538027 9.191666e-38
000190 90 62 a0 bc 81 31 58 3d 1a ed 37 3e ad 33 21 3e
       -0.019578248 0.052781586 0.17961541 0.15742369
0001a0 8a 13 05 be 99 88 f3 bd 27 3e ef bc 37 84 b3 bb
       -0.12995735 -0.11891288 -0.029204441 -0.0054784077
0001b0 d4 e8 76 bd 27 75 0f 3e 1b e0 46 be 7a 85 05 be
       -0.060280636 0.14009534 -0.19421427 -0.13039199
0001c0 88 9d 0f 3d bb 1d 46 be 6a b2 a0 38 b5 2c 41 bd
       0.035062343 -0.19347279 7.662627e-05 -0.047161777
0001d0 7c 22 40 be 61 4f 82 ba 28 5c 49 3e a2 1e ca 3d
       -0.18763155 -0.000994187 0.19664061 0.09869124
0001e0 ed 90 b5 3d 6d aa c5 bd b8 23 3b 89 f1 d8 09 3e
       0.08865533 -0.09651647 -2.2526101e-33 0.13461663
0001f0 ed 58 14 3e b5 2b 37 be a6 19 4b be 28 b0 2c 3e
       0.14487047 -0.17887767 -0.19834003 0.16864073
000200 6f 69 d7 3b ea f5 aa 3d 60 98 b9 3d 02 bc f8 3d
       0.006573848 0.08347686 0.09062266 0.12145235
000210 58 6c 14 be 64 93 0e be d4 86 55 3e a3 94 50 3b
       -0.14494455 -0.13923413 0.20852214 0.0031826876
000220 42 af 68 bd 3c 9f f0 3d 3d 55 96 3e 85 8c 4b 3d
       -0.056807764 0.117491215 0.29361907 0.049694557
000230 31 09 cf 3d 5f 0f 47 bd 1d c5 df bd fc 74 16 be
       0.10109175 -0.048598643 -0.10926268 -0.14693063
000240 e1 12 2f 3e a8 8e 8c 23 fc 19 04 be 89 06 00 bd
       0.17097045 1.5239248e-17 -0.12900537 -0.031256232
000250 4c b9 f2 b9 02 fe 15 be 53 ad 42 3e 82 77 eb 3d
       -0.00046295894 -0.14647678 0.1901143 0.11497404
000260 ab 3f 20 3c ad 14 1f 3e de 80 2c bc a2 6c 21 be
       0.009780805 0.15535231 -0.010528771 -0.15764096
000270 54 1f 55 3e b7 33 a8 bc 05 1c 29 be 68 7a 85 3d
       0.20812732 -0.020532472 -0.16514595 0.06517488
000280 76 f9 18 3d a5 e9 7b 3e 31 f2 a2 3d 79 ef d0 3d
       0.03734728 0.24600847 0.079563506 0.10201926
000290 24 30 8d 3d fb 12 03 3e 3a 4e f5 bb 91 79 b9 bc
       0.06893948 0.12800209 -0.007486132 -0.022640975
0002a0 03 cf 0d 09 1d f1 2f 3e 33 14 ef bd a1 4c 98 bd
       1.7069594e-33 0.17181821 -0.116737746 -0.07436491
0002b0 fa 15 89 bd b6 85 33 be 91 00 61 be 94 92 fd bd
       -0.06693645 -0.17531475 -0.21972872 -0.12381473
0002c0 6e 4d 1a 3e 36 b1 2d 3e 5d aa 21 3e 51 84 cf bd
       0.150686 0.16962132 0.15787645 -0.10132659
0002d0 59 90 eb bc 61 d9 51 bd 7c cb df 3e f0 64 df bd
       -0.028755354 -0.0512327 0.43709934 -0.10907924
0002e0 c9 04 52 3e 1e 6f 16 be 9e 8a dd bc 22 61 ad 3c
       0.20509638 -0.14690825 -0.027043637 0.02116448
0002f0 f6 85 51 3d bb 4c ba 3d 9b dd d7 3d 7f 4b 5e 02
       0.051153146 0.090966664 0.10540315 1.633165e-37
000300 70 4f 92 bc 77 85 83 3e d5 a4 e9 bc cc 62 90 bd
       -0.017860144 0.25687763 -0.02852098 -0.07050094
000310 fc d9 05 3c b3 61 08 3d 6e 23 59 bb b9 b5 0d 3e
       0.008169647 0.0332963 -0.003313269 0.13838853
000320 66 e5 c0 bd 00 24 a1 3b c3 ac f2 3d 34 6e 80 3d
       -0.09418754 0.0049176216 0.11849358 0.062710196
000330 9e 3f b4 3d c1 18 9b bd 8b 7c cf 3d 0d 8b 78 3e
       0.088011965 -0.07573081 0.101311766 0.24271794
000340 91 14 3e bd 37 79 b8 bd 97 e0 22 bd ec e6 f3 3d
       -0.046406332 -0.09007495 -0.039764967 0.11909279
000350 54 40 b6 3d 68 e8 20 3e 73 55 ff 01 e4 40 36 be
       0.08898988 0.15713656 9.379482e-38 -0.17798191
000360 aa 98 89 bd 61 aa f5 bd 46 88 68 3d de 8d ac 3d
       -0.067185715 -0.11995388 0.056770585 0.084254965
000370 c5 79 a3 bd 1f bc 8f bd fd 35 0e 3d d7 08 e1 3d
       -0.0798221 -0.07018303 0.034719456 0.10988014
000380 d5 ec 0e 3d c3 26 80 3d 74 2f e9 3c 94 7c 0d be
       0.03489383 0.06257393 0.02846501 -0.13817054
000390 1b d9 94 be 7c 18 da bd 9a a3 37 3e bd 1f e2 bc
       -0.29071888 -0.10649201 0.17933503 -0.027603025
0003a0 bd 8b 04 3e 6f 4d 26 3e 46 d5 3a 3d b9 58 11 3e
       0.12943931 0.16240476 0.04561355 0.14194001
0003b0 8c 46 cc 3d 92 56 2c 26 2b 1c f2 bd d7 55 09 3e
       0.09974393 5.979181e-16 -0.11821779 0.13411652
0003c0 ed b5 02 3e 0c 96 a2 bd d4 f6 63 3d f6 f4 e4 bd
       0.12764712 -0.079387754 0.055655316 -0.11179535
0003d0 0d 15 7d 3d 81 c4 46 3e 53 02 e0 bd e4 7b 8f 3d
       0.061787654 0.19410898 -0.10937943 0.07006052
0003e0 bb a1 32 3e 10 45 44 be e3 67 e5 bd 6c 3d 29 be
       0.17444508 -0.1916697 -0.112014554 -0.16527337
0003f0 58 c7 40 3e f7 b6 31 3e 98 e9 c6 3c 86 67 72 3d
       0.18826044 0.17354952 0.024281308 0.05918076

model.0.bias f4 [64]
000000 57 11 39 37 e9 da 0a b7 3f 23 b1 b6 b1 00 5a b7
       1.10308965e-05 -8.27641e-06 -5.2791142e-06 -1.29939735e-05
000010 e1 04 1a 37 fa e6 87 36 34 bf d1 34 ba 81 3e b8
       9.180251e-06 4.0502027e-06 3.9068402e-07 -4.5420347e-05
000020 3e e3 5a b5 38 87 14 37 e0 ac 8c 35 26 f7 a5 b5
       -8.154201e-07 8.8529705e-06 1.0481126e-06 -1.2365388e-06
000030 c4 d5 73 b7 cd 41 7e b7 6c a2 ce b7 b7 0d 36 b8
       -1.45337e-05 -1.51549e-05 -2.4632747e-05 -4.3404954e-05
000040 61 ce 10 36 3c 3c 45 37 4b de 57 b5 84 08 82 37
       2.15778e-06 1.1756139e-05 -8.041722e-07 1.5501173e-05
000050 cf 22 72 37 81 56 17 b5 ec 37 84 37 8a 19 49 37
       1.44324285e-05 -5.6377763e-07 1.5761667e-05 1.198648e-05
000060 e6 3b 9d b7 86 fb e8 37 b8 90 3c b7 83 70 85 37
       -1.874375e-05 2.777368e-05 -1.1239368e-05 1.5907228e-05
000070 b0 7d aa b7 43 a9 bd 37 9f 1e 3e b7 ac 8b b4 36
       -2.0324107e-05 2.2609374e-05 -1.1332012e-05 5.380678e-06
000080 f3 85 37 38 ea 16 38 b6 e1 01 8b 36 87 d0 10 b6
       4.375535e-05 -2.7431474e-06 4.1427415e-06 -2.157905e-06
000090 34 a1 06 b7 1e f7 3e b7 8e 23 30 37 25 7c fc 34
       -8.024555e-06 -1.1382419e-05 1.0498696e-05 4.7028985e-07
0000a0 cc af 45 b8 2b 1f 6f 36 bf b9 a0 b7 30 cb 3b b8
       -4.7132184e-05 3.5631917e-06 -1.9159981e-05 -4.4773507e-05
0000b0 18 57 78 b7 6b ab 4b 36 fe 30 67 37 7d c0 6b b7
       -1.480223e-05 3.0349136e-06 1.378008e-05 -1.4051909e-05
0000c0 87 ac db 37 c1 4d c8 b5 40 fd 5c 34 91 bd 7d b6
       2.6187174e-05 -1.492379e-06 2.0581228e-07 -3.781028e-06
0000d0 1d 7c a3 b6 b3 89 9f b8 f3 19 90 b6 83 30 4b 37
       -4.8722272e-06 -7.607359e-05 -4.2945553e-06 1.2111038e-05
0000e0 09 1f 34 37 dd 9e a4 36 a4 51 35 36 b9 d5 bd 36
       1.0736062e-05 4.906075e-06 2.7018623e-06 5.6575195e-06
0000f0 8e 64 bb b4 b8 a3 24 37 7c 5c 30 38 7d c6 6a 37
       -3.4904627e-07 9.8132805e-06 4.2047803e-05 1.3993701e-05

model.1.weight f4 [64]
000000 36 a5 81 3f fa ff 6f 3f 75 1c 73 3f 38 1b 7f 3f
       1.0128543 0.93749964 0.94965297 0.9965091
000010 dc 1b 7f 3f 46 e3 6f 3f 36 42 81 3f d2 b9 85 3f
       0.99651885 0.93706167 1.0098331 1.0447333
000020 f1 43 76 3f ea 40 88 3f 5e 79 6f 3f d0 d7 80 3f
       0.9619742 1.064481 0.93544567 1.0065861
000030 90 c2 82 3f 66 0e 7c 3f e4 eb 80 3f 54 d3 8a 3f
       1.0215626 0.9845947 1.0071988 1.0845742
000040 e1 9c 77 3f 88 83 82 3f 5b 80 8d 3f 13 e7 83 3f
       0.96723753 1.019639 1.1054796 1.0304893
000050 99 75 79 3f b9 a2 7c 3f b9 b5 79 3f ed d3 74 3f
       0.97445065 0.98685795 0.9754291 0.95635873
000060 50 c6 7c 3f 32 ab 84 3f 0d 17 78 3f f1 2e 84 3f
       0.987401 1.0364745 0.9691017 1.0326825
000070 d0 30 8a 3f 6a 1f 7c 3f 47 3e 7c 3f 97 ac 77 3f
       1.0796146 0.98485434 0.9853253 0.96747726
000080 4e 41 87 3f bf 71 7d 3f d1 12 78 3f a4 69 83 3f
       1.0566804 0.9900169 0.9690371 1.0266614
000090 3e 8d 81 3f 76 64 82 3f c6 71 83 3f 0f 86 73 3f
       1.0121229 1.0186908 1.0269096 0.9512643
0000a0 6d e6 71 3f 34 75 84 3f 65 cf 7b 3f eb fe 7e 3f
       0.94492227 1.0348268 0.98363334 0.99607724
0000b0 6f c9 76 3f ce ef 72 3f ee 2d 7e 3f ba 9d 7a 3f
       0.96401113 0.9489716 0.99288833 0.9789692
0000c0 a6 85 77 3f bf 5c 73 3f 66 91 7a 3f 91 a4 76 3f
       0.96688306 0.95063394 0.9787811 0.9634486
0000d0 d4 c8 6f 3f 3c 89 83 3f 79 17 6f 3f 5b de 7e 3f
       0.93665814 1.0276256 0.9339519 0.9955804
0000e0 b6 88 79 3f 0b e2 73 3f ed f2 76 3f 56 9c 88 3f
       0.9747423 0.9526679 0.96464425 1.067271
0000f0 8e 83 7a 3f 0e 31 7b 3f b4 ac 8a 3f 14 4c 72 3f
       0.97856987 0.98121727 1.0833955 0.94647336

model.1.bias f4 [64]
000000 63 ac 7f 3c 9b ea 82 bd d9 3c a4 bc e0 58 b8 bb
       0.015605065 -0.06392404 -0.020048546 -0.005625829
000010 4b 86 a5 3c 7e ad 34 bd f5 ea 88 3c 8d 7d cd bd
       0.020205637 -0.044110768 0.016713599 -0.100337125
000020 09 b0 c9 bc 3b 1d 32 3d b7 a4 39 bd 8b 49 ba bc
       -0.024620073 0.043484908 -0.0453231 -0.022740146
000030 cf ab 64 3d bb 8c 38 3d 32 e2 37 3c 51 18 83 bc
       0.055827912 0.045056086 0.011223363 -0.016002806
000040 f3 80 03 bc 38 d2 13 3c 44 19 d0 3c 23 db 33 bc
       -0.008026349 0.009022288 0.025402673 -0.010977539
000050 64 a5 97 bc 0e 06 6b 3b 7b 28 42 bc d2 ed 35 bd
       -0.018511482 0.0035861763 -0.011850472 -0.044416256
000060 0e 2e 8c bc 4c 03 2f 3d ba bf 5c bd 61 91 f7 3c
       -0.017111804 0.042727754 -0.053893782 0.03022069
000070 0c dc 0d 3d ed 7d 91 bb 21 7d a4 3c 88 9e 22 bd
       0.03463368 -0.0044400604 0.020079197 -0.03970197
000080 c7 a3 c8 bc e8 fe dc bb d8 71 05 bd 3e 44 98 3c
       -0.024492158 -0.0067442544 -0.032579273 0.018587228
000090 a1 75 1d bc 6a 71 8c 3c 41 f8 bc 3b 7b fb 3b bd
       -0.009610564 0.017143924 0.005766899 -0.045894127
0000a0 d5 f1 16 bd db 65 2c 3d 63 9d 82 3b 6a 13 cc bd
       -0.036851723 0.042089324 0.003986047 -0.099646404
0000b0 14 f2 5e bd f6 81 ee bc e4 37 2e 3a 2a 7a d1 bb
       -0.054430082 -0.029114705 0.00066459016 -0.006392737
0000c0 7c 44 0b bd 8e 52 89 bc a7 a0 89 bc 50 36 1b bd
       -0.03400086 -0.016762998 -0.016800238 -0.037893593
0000d0 e7 3b 29 bd 46 9d ff 3b c1 51 14 bd b6 34 b1 3c
       -0.041316893 0.007800731 -0.03621078 0.02163158
0000e0 36 4d 01 3c ba 8a 06 bd 11 8e e1 3c a3 21 a4 3c
       0.007891944 -0.032847144 0.027533563 0.02003557
0000f0 26 fc 20 bd cf ec 85 bd 68 63 a1 bd f8 31 90 bd
       -0.039302967 -0.06539308 -0.07880288 -0.07040781

model.1.running_mean f4 [64]
000000 4e 0e 0e 3c ea 1f 5e 3d e2 ea cd bc 51 01 c0 bc
       0.008670403 0.054229654 -0.025136415 -0.023438128
000010 3f 16 7a 3c e7 14 62 bd b2 f6 89 bc 8e 67 cd 3b
       0.015264093 -0.055195715 -0.016841266 0.006268448
000020 87 fb 8f bc ef 1c 00 bd 56 0e 81 bb 86 14 6b 3c
       -0.017575992 -0.031277593 -0.0039384766 0.014348155
000030 aa 04 00 bc 06 ed 09 3d 0a f2 10 3d 52 94 0d 3d
       -0.007813612 0.03367331 0.035387076 0.034565277
000040 0f df a2 bb 00 51 4d 38 f8 a7 83 3b 6a 7f d8 3b
       -0.0049704383 4.8951246e-05 0.004017826 0.006606986
000050 0c d0 ff bb ae 84 c9 3c 48 7f cb 3c dc e5 49 bb
       -0.0078067835 0.0245994 0.024840966 -0.0030807173
000060 2a 79 78 bc 8f 0b 8f bc af c9 85 3c 5c a2 68 bc
       -0.0151656065 -0.017461566 0.016331522 -0.014198866
000070 e9 72 db bb 02 2f 3f bd 71 9d 4f 3c 5c 57 20 3b
       -0.006697048 -0.04667569 0.012671814 0.0024466133
000080 e3 3b 04 3d b9 7f 87 3d a1 67 5e 3c 0e 6e 17 bd
       0.032283675 0.06616158 0.013574512 -0.03697019
000090 64 ce 8d bc e1 51 bf 3c 6a 6b b8 bb 1b f2 7f 3c
       -0.017310329 0.023354473 -0.005628039 0.015621687
0000a0 23 80 0d bb 6f 74 24 3c 15 b8 21 3d 2c 40 58 bd
       -0.0021591268 0.010037526 0.039482195 -0.052795574
0000b0 b4 d6 85 bc 95 ea 03 bc ec 95 66 bc 34 60 34 bc
       -0.01633773 -0.008051534 -0.01407383 -0.011009265
0000c0 5b 38 0f bd 11 cf 22 3d fa 7a 01 3c 43 cf dd 3c
       -0.034965854 0.039748255 0.007902855 0.02707637
0000d0 a6 50 4d 3d 4d 0a 0f bd bf d5 11 bd 9c e5 d2 3c
       0.05012574 -0.034921933 -0.035604235 0.025744252
0000e0 ac ea 4d 3c 7f 74 97 bc c2 96 29 3d cd 2c 6a bc
       0.012568157 -0.018488167 0.04140354 -0.014292908
0000f0 9b 4d ac b9 3e 2c c3 3c da c9 3e 3c 81 59 86 3c
       -0.00032864217 0.023824807 0.011644805 0.0164001

model.1.running_var f4 [64]
000000 d3 f0 0d 3e 54 49 aa 3e 42 8f 67 3e 10 47 72 3e
       0.13861398 0.3325907 0.22613242 0.2365992
000010 de 3a 54 3e 82 12 14 3f be 51 86 3e 32 b7 36 3e
       0.20725581 0.5784074 0.2623424 0.17843321
000020 36 3e ca 3e 48 39 33 3e 00 f9 08 3f 33 bb 33 3e
       0.39500588 0.1750232 0.53504944 0.1755188
000030 67 84 11 3e d5 18 59 3e f9 2d 1f 3e 11 d3 42 3e
       0.14210664 0.21200879 0.15544881 0.19025828
000040 7e bc b3 3e 34 c8 27 3e f8 57 ea 3d 3f 3c 77 3e
       0.35104746 0.16384965 0.1144256 0.24144076
000050 2a 5b c5 3e 1b 68 3f 3e 68 52 b5 3e fd 02 d4 3e
       0.38546115 0.18692057 0.35414433 0.4140853
000060 31 3f 8f 3e cd 2b 75 3e e9 30 52 3e 92 3d ee 3d
       0.279779 0.2394249 0.2052647 0.11632837
000070 03 ad 8d 3e 53 95 cc 3e b0 e7 be 3e f1 e1 4b 3e
       0.2767106 0.39957675 0.3728614 0.19910409
000080 80 3f 83 3e 2f 7a 4c 3e d9 94 0f 3e 59 3c d0 3d
       0.25634384 0.19968484 0.14021625 0.101677604
000090 17 ed 92 3e 33 8d 17 3e 3c 57 1f 3e 31 67 00 3f
       0.2869651 0.14799957 0.15560621 0.5015746
0000a0 f1 32 81 3d 33 60 06 3e f0 0d 71 3e a9 ff 0a 3e
       0.063085444 0.13122635 0.23540473 0.13574089
0000b0 b0 fc 90 3e aa 7d ce 3e 8d f9 8c 3e 29 18 a0 3e
       0.28317785 0.4033025 0.27534142 0.31268433
0000c0 41 8b 97 3e 04 42 8e 3f 90 4a 9d 3e fb 38 df 3e
       0.2959843 1.1113896 0.3072095 0.4359816
0000d0 79 b9 ed 3e c7 ed ac 3e 12 d6 ac 3e fe a2 df 3e
       0.46430567 0.3377516 0.33757073 0.4367904
0000e0 aa 15 9a 3e 67 14 08 3f 54 ab 39 3e 94 36 68 3e
       0.30094653 0.5315613 0.18131763 0.2267707
0000f0 17 dc ee 3e 55 68 bc 3e a8 d3 e0 3d af 3c 30 3e
       0.4665229 0.3679835 0.1097787 0.17210649

model.4.weight f4 [32, 64]
000000 97 52 51 bd 41 74 88 3d bd d2 95 bd db 5c b4 3d
       -0.051104154 0.06662799 -0.07315586 0.08806773
000010 15 6f 5e ba 36 6b c2 3c 6d 63 34 bd 3f 62 1a ba
       -0.00084851804 0.023732763 -0.044040132 -0.00058892736
000020 4a 3f b2 ba 62 8f 3b bb cb d2 3a 3d 2b dc 30 3c
       -0.0013599184 -0.0028619398 0.045611184 0.01079468
000030 16 3f 0e be 11 fc ab 3a 44 da bb bd 39 fd 06 3c
       -0.13891253 0.0013121386 -0.0917249 0.008239084
000040 21 1c 71 bd 3c 1f 97 bd 7d 60 09 be 57 4d 9d bc
       -0.058864716 -0.07379004 -0.13415714 -0.019201918
000050 f3 7a 15 bd f9 4c 06 3e 40 fa 29 3d 41 f1 85 3b
       -0.036494207 0.131153 0.041498423 0.0040875976
000060 73 35 09 3d 55 b2 93 3d 03 e2 11 be 5e 2b 01 3e
       0.03349824 0.072117485 -0.14246373 0.126142
000070 e2 8a ec 3c a5 34 f5 bd cd eb 8b bd b3 b9 69 bd
       0.028874818 -0.11972932 -0.06832085 -0.057061862
000080 d2 3c 1d bd 5b 7a c4 3b b5 a1 ce bd 12 50 0f 3e
       -0.03838808 0.005996031 -0.10089437 0.13995388
000090 7d 75 19 3b ee 43 a9 3b c3 58 17 3d 10 40 19 bc
       0.0023415976 0.0051655686 0.036949884 -0.009353653
0000a0 af d8 99 bd 3b 87 6a 3d 8f b4 6a 3d 47 3b 98 3c
       -0.07512032 0.057257872 0.0573011 0.018582953
0000b0 14 56 0b be 0f 0c e7 bd c4 0c c2 bd 41 ba 14 3d
       -0.13607055 -0.11281597 -0.09475091 0.036310438
0000c0 92 21 39 3d 37 fe c5 3d da 7c ef bb 7f f5 5c bc
       0.04519803 0.09667628 -0.0073085846 -0.013486265
0000d0 55 b4 be bd 00 f6 a2 bd 04 90 91 3c d8 8c 8c 3d
       -0.09311739 -0.07957077 0.017768867 0.06862801
0000e0 85 09 c1 bd b1 b8 b5 3c 87 0b 52 3d 0b cc f7 3c
       -0.09425644 0.022182794 0.051280525 0.030248662
0000f0 dc ba 87 bc d9 54 44 3d 88 69 37 3d 5f 07 b4 bd
       -0.016568594 0.04793248 0.044778377 -0.087904684
000100 e0 bd cb bd cc 42 cc 3d 5c 84 c2 3d af 78 9a bc
       -0.09948325 0.09973678 0.09497902 -0.018856375
000110 4a 00 b7 bd 39 ec af 3c 1c 78 24 bd cb 36 d5 3b
       -0.08935602 0.021474944 -0.040153608 0.006506776
000120 f9 e9 84 bd 1e be 03 be 44 c9 3c bd bb 58 40 3d
       -0.06489939 -0.12865493 -0.04609038 0.04695962
000130 a9 94 00 3d d7 6e 96 3c d8 03 32 3c 96 32 18 be
       0.031391773 0.0183634 0.010865174 -0.14863047
000140 80 7c cd bc 72 10 5f bd 42 5c a9 3d 6e 4a ea bc
       -0.02508378 -0.054459043 0.0826955 -0.028599944
000150 08 55 6a bd c3 21 aa bc df d9 23 bd d1 7f d2 3c
       -0.05721 -0.020768052 -0.0400027 0.025695713
000160 66 22 e8 3d 47 9f f4 3d 14 0c 09 bc 12 2b 48 3c
       0.11334686 0.11944442 -0.008364696 0.0122173
000170 93 28 0a 3e 5d 16 ad bc 83 a2 3e 3d 8e 9f 4f 3d
       0.1349204 -0.021128828 0.046541702 0.050689273
000180 81 26 a2 bd b8 d3 bd bc 94 2c 9b bd bb dd bd bd
       -0.079175 -0.023172244 -0.07576862 -0.09270807
000190 05 3e b3 3d 86 d9 f6 bd fc 2c ee bd 5b 58 c7 3a
       0.08752064 -0.12053208 -0.11629674 0.0015208827
0001a0 0e d1 5b 3d 4d c7 0a bd 00 69 d0 3d 1e a6 28 be
       0.053666167 -0.033881474 0.10176277 -0.16469619
0001b0 43 f2 86 3d dc ce 59 bd 3b 6f 58 bb 43 8f b7 3d
       0.065891765 -0.053175792 -0.0033025283 0.08962872
0001c0 b1 cd ec 3d 8f 6b 96 3d 9b 6e 37 3c 8b 64 a9 3d
       0.1156267 0.07344734 0.011195804 0.0827113
0001d0 c0 06 4f 3d bb 84 da 3d 72 0a 80 bd a6 8e 76 bd
       0.050543547 0.106698476 -0.06251992 -0.060194634
0001e0 ff 09 95 bc 81 3a 9c bd 29 aa 62 bd f0 68 ad 3d
       -0.018193243 -0.07628346 -0.05533806 0.08467281
0001f0 63 a0 c4 3d 60 a9 a6 bd 0e 3c 8a bc b1 1a 98 bc
       0.09600904 -0.081377745 -0.01687434 -0.018567415
000200 64 cc 5e 3d 10 74 40 3d a1 ac 91 bc d8 5c cb bd
       0.05439414 0.046985686 -0.017782511 -0.09929818
000210 25 5b c4 bd 5d 1c 03 bd 34 2f bc 3c 91 17 0a 3d
       -0.09587697 -0.03200947 0.022971727 0.03371388
000220 e0 7b 7c bc 3e f5 49 3d ee 97 b8 3d 47 09 0c 3e
       -0.0154103935 0.049306147 0.09013353 0.13675414
000230 0c fb 43 3c 26 9a a3 3d e2 3a 5a 3c 38 bb 45 bc
       0.01196171 0.07988386 0.013319703 -0.012068562
000240 3c 42 d3 3d 72 30 f2 3b e8 c7 40 bd 34 07 8a bc
       0.103153676 0.007391029 -0.047065645 -0.016849138
000250 d6 3c 06 3b f5 18 c1 bd 4f 07 b7 3d 08 1d bf bd
       0.0020483038 -0.09428588 0.08936941 -0.09331709
000260 4c 19 de 3d 55 bd e9 3c 6c 02 f8 3d 4d 45 ce bc
       0.10844669 0.028532663 0.12109837 -0.02517953
000270 02 b4 56 3c eb 93 4f 3d 27 fe 90 bd d9 d5 f5 3c
       0.013104441 0.050678175 -0.07079726 0.030009197
000280 58 31 52 3d 1c f7 7a 3d 76 cb 0d bd 97 57 a7 bd
       0.05131659 0.061270818 -0.034617864 -0.08171003
000290 69 4f 87 3d 54 bd 1e bd 9b 9c e2 3d a4 47 0b 3c
       0.06606943 -0.038754776 0.110650264 0.008500967
0002a0 14 fb 58 3d a0 4a 19 bd 41 54 63 3d 09 f5 c8 3d
       0.05297382 -0.037424684 0.055500273 0.09812362
0002b0 50 10 50 bd af 65 92 bd fa be 24 3d 68 c3 eb 3d
       -0.050796807 -0.07148301 0.040221192 0.1151188
0002c0 11 39 68 3d 43 1b a5 3d 29 76 c9 3d 4e 93 80 bd
       0.056695048 0.080618404 0.098369904 -0.06278096
0002d0 83 44 81 bd 83 29 ae bc 82 21 89 bd 56 21 d1 3c
       -0.06311896 -0.021260029 -0.06695844 0.025528591
0002e0 d3 a4 6a bd 26 8e e3 3d 8c c1 cc 3d 3b f3 5b bd
       -0.057286095 0.11111097 0.09997854 -0.05369876
0002f0 34 b2 fe bc ac 89 c4 3c 63 7f ca bd 08 60 24 3d
       -0.031090833 0.023991428 -0.09887578 0.040130645
000300 17 c1 1c be c1 a3 7f 3a 2c 8c 4d bd f9 04 54 3b
       -0.15308033 0.0009751879 -0.050182506 0.0032351597
000310 7a 38 b4 bd 92 d8 3d bc dc 8d a5 3d 6c a8 af bd
       -0.087998345 -0.011587279 0.08083698 -0.08577046
000320 fd cd 36 bc 35 10 76 bd 0b 45 eb 3d db f3 c8 3c
       -0.01115751 -0.06007405 0.11487778 0.024530342
000330 f3 43 20 3d ea 66 e8 bd a7 99 95 bd 45 71 d8 39
       0.0391273 -0.11347754 -0.073046975 0.00041283123
000340 57 ef 3d bc a4 8c be 3d d7 38 f1 bc 60 ba 05 3d
       -0.011592708 0.09304169 -0.029446049 0.032648444
000350 9e 7a 48 bd 6d e3 58 3d 1c 70 e1 3d db 20 aa 3c
       -0.04894506 0.052951265 0.11007711 0.02076762
000360 c7 b9 77 bd 75 80 de 3d 65 bd 53 3d b7 d1 cc bd
       -0.060479905 0.10864345 0.051694293 -0.100009374
000370 f1 1f 0c 3e c9 1d 2d bd b8 a5 14 3e d3 93 2c 3b
       0.1368406 -0.042264733 0.14516342 0.0026333227
000380 b5 ba 83 bb 27 e9 9e 3c da 97 08 be 86 f0 30 3d
       -0.00402006 0.019398285 -0.13339177 0.04319813
000390 8f 41 a5 bc 03 43 e6 bc 82 b2 c3 bd 0f 1c fc bb
       -0.020172862 -0.028108126 -0.09555532 -0.0076937745
0003a0 87 26 dd 3d c8 05 5e 3d c2 01 56 bd 49 ed 6c bd
       0.10798364 0.054204732 -0.05224777 -0.05784348
0003b0 ba 01 8b bd b1 e9 de 3d 94 70 16 be 2c c0 b5 bd
       -0.06787439 0.10884417 -0.14691383 -0.088745445
0003c0 70 be de 3d fb 9e 8b 3b bb 17 f1 bd a9 32 ea 3d
       0.10876167 0.0042608953 -0.11772104 0.11435444
0003d0 81 01 f8 39 0a e1 45 bd 42 9e ba 3d e8 88 99 bd
       0.00047303367 -0.048310317 0.091122165 -0.07496816
0003e0 07 9f 03 bd b4 1d 5e 3d 2f f0 90 bd d1 e3 fe 3d
       -0.032134082 0.054227546 -0.070770614 0.12445796
0003f0 6c c1 01 3e 88 f8 b5 bc db 5f 20 3e ae 6c 3d bc
       0.12671441 -0.022213235 0.15661566 -0.011561556

model.4.bias f4 [32]
000000 3b a9 05 b7 85 94 fc 36 b3 53 30 37 a7 bc 43 b7
       -7.96682e-06 7.527475e-06 1.0509905e-05 -1.166683e-05
000010 f8 35 aa b6 69 be dd 37 eb c3 6c b6 6a d6 59 38
       -5.0726776e-06 2.643392e-05 -3.528078e-06 5.193652e-05
000020 d1 07 9b 37 64 83 03 b7 e8 45 dd b7 ad df ac 35
       1.848108e-05 -7.8388e-06 -2.6377806e-05 1.2880097e-06
000030 25 b2 91 b6 39 3a 58 b7 ea 51 8f 36 19 87 79 36
       -4.3420755e-06 -1.2888159e-05 4.271268e-06 3.7182529e-06
000040 a2 24 b8 b7 46 4c 03 b7 b0 30 21 b8 c6 c2 af b6
       -2.1951568e-05 -7.825967e-06 -3.8430735e-05 -5.238081e-06
000050 1c 5d 2b b6 f8 88 05 35 8a f8 45 b7 e5 16 aa b7
       -2.5535182e-06 4.9745677e-07 -1.17999825e-05 -2.027624e-05
000060 2c 5d 61 b7 13 b9 3c b7 eb f6 e0 37 d9 18 b0 36
       -1.3432738e-05 -1.1248764e-05 2.6817861e-05 5.2481014e-06
000070 2e 4e b3 35 c0 3e 3a b7 15 36 89 b7 d7 ca 6f 37
       1.3359293e-06 -1.1101074e-05 -1.6356857e-05 1.4292737e-05

model.5.weight f4 [32]
000000 1e 3e 85 3f 1c 23 8d 3f 06 3e 7d 3f 59 30 84 3f
       1.0409582 1.102634 0.98922765 1.0327255
000010 2c 5f 85 3f be b6 88 3f 5a 6c 7b 3f 9f 67 86 3f
       1.0419669 1.0680768 0.98212206 1.0500373
000020 90 94 7e 3f d8 9d 7f 3f dc 12 8c 3f 43 07 88 3f
       0.9944544 0.99850225 1.0943255 1.0627216
000030 ac 22 89 3f ad 03 88 3f 25 21 85 3f 45 83 87 3f
       1.0713706 1.0626122 1.040074 1.0586935
000040 8a 1e 80 3f aa cf 84 3f 22 7a 8e 3f c3 a6 86 3f
       1.000932 1.0375874 1.1131022 1.0519642
000050 6c 88 81 3f 35 c8 85 3f eb 5f 83 3f 53 3a 89 3f
       1.0119758 1.0451723 1.0263647 1.0720924
000060 30 22 89 3f d7 da 88 3f 13 d5 85 3f 00 c6 82 3f
       1.0713558 1.0691785 1.045565 1.0216675
000070 b9 ce 88 3f d1 05 87 3f b3 6b 83 3f 54 2d 82 3f
       1.0688087 1.054865 1.0267242 1.0170083

model.5.bias f4 [32]
000000 05 96 a7 3b 32 98 47 3d e6 da 2b bd a6 9e 4c 3c
       0.0051143193 0.04872913 -0.041956805 0.012488997
000010 59 c9 aa 3d c4 39 ff 3c 30 d4 3e bd cf a0 92 3d
       0.08339185 0.031155474 -0.046589077 0.07159578
000020 2e 39 ca bc c8 3d 34 3b 50 b5 0d 3d c7 1d 3d 3d
       -0.024685469 0.0027502645 0.03459674 0.046170976
000030 a9 8b 0e 3d 18 49 10 3d 31 00 86 3c db 15 d1 3c
       0.03480116 0.035225958 0.016357513 0.025523117
000040 7a 19 7d bc 20 05 1e 3d 03 31 be 3d 83 39 de 3c
       -0.015447969 0.038579106 0.09286692 0.027127033
000050 3d a8 0e 39 66 f1 f1 3c 08 e8 2a 3d 8a 2e 85 3d
       0.00013604849 0.029534053 0.04172519 0.06503017
000060 e7 42 83 3d e2 53 dd 3c 1d e7 87 3d d0 aa f2 3c
       0.06409245 0.027017538 0.06635878 0.029622465
000070 34 1b 47 3d 49 56 c4 3c 92 21 0d 3d aa af 36 bd
       0.048609927 0.023966925 0.034455843 -0.04460112

model.5.running_mean f4 [32]
000000 16 f0 4f be 5b 98 82 bc 52 28 b3 3e 42 94 92 3c
       -0.2030643 -0.01594179 0.349917 0.01789296
000010 08 38 c8 bc 4d 65 4d bd 60 f0 b0 bc 12 7d 42 3c
       -0.02444078 -0.050145436 -0.021598995 0.011870639
000020 dc d4 6a be 2d 4e 7a bd 7e e6 32 be 89 79 83 be
       -0.22932762 -0.06110971 -0.17470738 -0.2567866
000030 91 89 7a bd 1b 3f 02 be 52 f2 ba 3d ea 5d 43 3e
       -0.06116635 -0.12719385 0.0912825 0.19078794
000040 e5 d4 36 3e 52 8b 6a be ee 7e a7 bd 0e 10 b2 be
       0.1785465 -0.22904709 -0.08178507 -0.34777874
000050 09 5a 0d 3e 5e b4 82 be 7f e8 c8 be 65 62 9e be
       0.13803877 -0.25528234 -0.3923988 -0.30934444
000060 9e 2d 25 3e a1 7e 15 be 63 43 9c bd 3a ab 85 3d
       0.16130683 -0.14599086 -0.076300405 0.065267995
000070 a6 a3 b2 be 14 13 28 bd 69 81 4d 3d 25 9c c1 bc
       -0.3489048 -0.04103382 0.050172243 -0.023634026

model.5.running_var f4 [32]
000000 d7 74 92 3e d7 aa bc 3e 97 60 55 3e 1a 24 b2 3e
       0.28604767 0.3684909 0.20837627 0.34793168
000010 96 3f b6 3e f5 f7 4e 3e ef 21 82 3e 0e a7 0f 3e
       0.35595387 0.20211776 0.25416514 0.1402857
000020 8b 70 59 3e 04 db d0 3e 52 72 07 3f e0 20 68 3e
       0.21234338 0.40792096 0.52908814 0.22668791
000030 9b 58 b5 3e 7b d2 85 3e 0d 10 82 3e 22 a4 f8 3e
       0.35419163 0.26137146 0.2540287 0.48562723
000040 35 75 7a 3e 8a b8 b0 3e 86 04 bf 3e 11 99 ce 3e
       0.24458773 0.34515792 0.3730814 0.40351155
000050 cc 84 e4 3e 61 75 a2 3e 6e 30 5b 3e 20 58 66 3e
       0.44632566 0.31730178 0.21405193 0.22494555
000060 d8 89 f9 3e 9c 9a c9 3e 06 4d a7 3e db 74 ad 3e
       0.4873798 0.3937577 0.32675952 0.33878216
000070 2b ab 9b 3e 64 2d 96 3e e0 7c 2c 3e 84 d9 6f 3e
       0.30404028 0.29331505 0.16844511 0.2342282

model.8.weight f4 [16, 32]
000000 3a 4f ba bd 83 32 9d 3d 00 61 cb bd 48 53 55 bd
       -0.090971425 0.0767565 -0.09930611 -0.052081376
000010 2b 1d 40 3e 44 6a 3e 3d 67 3f 96 bd b1 60 6a 3d
       0.18761127 0.04648806 -0.07336312 0.05722112
000020 6a cc 92 bd 51 2e 32 3c 75 76 d7 bc 33 ca 25 3d
       -0.07167895 0.0108753005 -0.026301602 0.040476035
000030 71 a3 02 3d ea c3 96 3d 0b 73 59 3e 41 6b c7 3d
       0.03189415 0.073615864 0.21235292 0.09737254
000040 3a 3e 92 bd 3a 73 ff 3d 1f a7 5c 3e ad bb 0a 3e
       -0.07140775 0.124731496 0.21548127 0.13548155
000050 fd 41 83 bd 47 63 8c bd 9a 43 a6 3d 85 c5 fe bc
       -0.06409071 -0.06854873 0.08118363 -0.031100044
000060 44 ec 1d 3e 66 b9 66 3b 80 e8 04 3e df d1 d3 3c
       0.1542216 0.003520572 0.12979317 0.02585691
000070 a3 8d 44 bd f5 0b 19 3e cd 0c 59 3e 31 31 32 be
       -0.047986638 0.14945967 0.2119629 -0.17401578
000080 87 c6 ee 3d 80 45 d7 3d 08 eb 0a 3d 95 87 04 bb
       0.1165896 0.10511303 0.03391555 -0.0020222415
000090 83 ee 16 bd b7 b4 ec 3d 48 1e 0b 3d b9 6d f6 3d
       -0.036848556 0.11557906 0.033964425 0.12032647
0000a0 e1 50 f8 bc 51 4d 0c bd d5 ae a6 3d 79 95 24 bc
       -0.030312004 -0.034253422 0.08138815 -0.010045403
0000b0 c1 68 27 3e 08 42 f0 3d 69 80 59 3e 50 b1 4a 3e
       0.16348554 0.117313445 0.21240391 0.19794202
0000c0 e5 73 2c 3e fd 0d 30 3e 6d a4 9b 3d 2f c5 32 3e
       0.16841085 0.17192836 0.07599721 0.17458032
0000d0 c9 8a 80 3e c8 ea 02 3d 48 b0 70 bd 26 11 5a 3e
       0.25105885 0.031962186 -0.058761865 0.21295604
0000e0 d0 2c 57 3e e2 fd f1 3c 56 fa 99 3d 08 6c 44 3e
       0.21013188 0.029540006 0.07518451 0.19181836
0000f0 4c 2e 87 bb 32 b7 9a 3d d3 a7 53 39 bd 72 da bc
       -0.004125392 0.07554473 0.00020185047 -0.02666604
000100 9a 29 64 3e d8 d6 e8 bd 0a b7 5d 3d 25 ee c2 3d
       0.22281495 -0.11369103 0.054129638 0.09518079
000110 60 68 89 bd c9 c2 66 3e 16 86 56 3d f2 2f 3c bd
       -0.06709361 0.22535242 0.052373968 -0.04594416
000120 10 f7 41 bd 00 b7 01 be 96 1d c6 bd c9 46 b7 3d
       -0.047354758 -0.12667465 -0.09673612 0.08949048
000130 0f f1 f5 3d 2b 83 2b 3e 70 48 4f 3e ef df 4e 3e
       0.12008869 0.16749255 0.20242476 0.20202611
000140 70 cf d1 bd c2 25 3a 3e 51 5a b1 bd c5 70 c9 bd
       -0.10244644 0.18178466 -0.086598046 -0.09835962
000150 87 b7 7c bd 79 d9 56 be 86 77 5c 3d 1c 74 62 bb
       -0.061698463 -0.20981397 0.053824924 -0.003455407
000160 96 11 1d be 1c 65 0c 3d 85 ae 57 3c 85 4e ca bd
       -0.1533874 0.034276113 0.013164167 -0.09878258
000170 7f 17 42 3e 62 ec 30 3e c0 ea a5 3d a8 e4 37 be
       0.18954276 0.17277673 0.08101416 -0.17958319
000180 5e 21 62 3d 5b 8f 04 be 38 13 32 be e9 88 16 be
       0.055207603 -0.12945311 -0.17390144 -0.14700665
000190 97 00 98 bd 4a 9d bd bd 2b 1c 94 bd 8c 0a f3 3d
       -0.074219875 -0.09258516 -0.07231935 0.11867246
0001a0 50 8e 59 3d dd a1 ff bd 9d 39 01 be 5c 62 1f 3e
       0.053114235 -0.12482045 -0.12619634 0.15564865
0001b0 f9 c3 48 3e f9 d7 d4 3d 75 dd b6 bd 56 c7 3f 3d
       0.19606008 0.10392756 -0.08928958 0.04682096
0001c0 b7 98 40 bc 27 bf 3a bd 26 96 70 bd a2 59 36 3e
       -0.01175516 -0.045592453 -0.058736943 0.1780763
0001d0 2c 4b a6 bc 4b 85 47 be 36 03 a5 3d 68 ed 27 bb
       -0.020299517 -0.19484441 0.08057253 -0.0025623683
0001e0 9a c4 46 bd 0f 46 2c be 4a 91 21 3e a9 a7 f3 3d
       -0.048527338 -0.168236 0.1577808 0.11897213
0001f0 61 7e 14 3e 5e d0 42 3e 53 78 84 bd ce 84 f8 3d
       0.14501335 0.19024798 -0.064682625 0.121347055
000200 1c 06 66 3d 3b 8b 11 bd 50 ce fe 3d d0 16 1c be
       0.05615817 -0.03553317 0.12441695 -0.15243077
000210 56 97 05 3d 24 53 14 3e dd 59 91 3d 4e ad cf 3d
       0.03261503 0.1448484 0.07097218 0.10140477
000220 db 3c 62 bd 5d 90 fc 3b 68 a7 d4 3d b3 d9 9a bd
       -0.055233818 0.007707639 0.10383493 -0.07561054
000230 3c 0f 36 bd 3f 58 02 be a6 63 19 3d 3d c5 b2 bd
       -0.044448122 -0.12728976 0.037448548 -0.087290265
000240 54 2b 38 be 73 6b c9 3c f7 10 3b be e9 29 47 bb
       -0.17985278 0.024587369 -0.1826819 -0.003038997
000250 c6 39 b7 3d 0b e7 18 be b5 bc c2 bd f4 cb 30 3d
       0.08946566 -0.14931886 -0.09508649 0.043163255
000260 7a e5 c2 bd 1d e0 e4 bd 6b 99 f8 bb cd 72 51 3c
       -0.095164254 -0.11175559 -0.007586648 0.012783718
000270 9b 27 39 be 22 7a 0b be c1 74 cd 3d c8 43 be 3c
       -0.18081515 -0.13620809 0.10032035 0.02322568
000280 c3 9e 03 be 83 09 ac bd d8 c5 48 3d ee ae f6 3d
       -0.12853532 -0.08400252 0.049016804 0.12045084
000290 60 93 32 be 57 85 86 3d 17 0f d9 3c 48 50 ff 3d
       -0.17439032 0.06568401 0.026496453 0.12466484
0002a0 7a e0 58 3e bd e0 37 3e 46 e2 04 be 3f 96 57 3c
       0.21179381 0.17956825 -0.12976941 0.01315838
0002b0 50 7a a7 bd b6 68 ff bc 5f 7c ed bc eb 2f db bd
       -0.08177626 -0.03117786 -0.028989969 -0.10702499
0002c0 74 c1 93 3d af ee 1b 3d b5 6c 3f 3d ed 4a c3 3d
       0.07214633 0.038069423 0.04673453 0.09535775
0002d0 db 58 92 3d a4 92 04 be 17 a2 a7 bd fb 3c f7 bd
       0.07145854 -0.12946564 -0.08185213 -0.12072178
0002e0 96 1c 89 bd 18 fc ca bd a6 82 ac bd a2 6a 99 bc
       -0.066949055 -0.09911364 -0.08423357 -0.018727604
0002f0 11 9b 8d bb 56 28 b0 bd 2a 24 be bd c2 94 73 3e
       -0.004321464 -0.086014435 -0.092842415 0.23787215
000300 a3 cc 13 bd 76 60 1e 3d fd 63 a2 3b f8 04 a7 3c
       -0.03608383 0.03866621 0.004955767 0.020388111
000310 bb 10 28 be e8 a5 fd 3d 7a 62 1e 3d be fd 2d bd
       -0.16412632 0.1238516 0.038668133 -0.042478316
000320 3d ff a8 bd d4 57 fb bd 70 ad f0 bd 75 18 16 3e
       -0.08251808 -0.12272611 -0.117518306 0.14657767
000330 49 1e 11 3e 02 22 23 3e 53 0b a2 bd 08 07 6e bd
       0.14171709 0.15930942 -0.07912316 -0.058112174
000340 a8 7a 39 3d 44 b4 b5 bd 2e 25 87 3d 9f 15 b0 3d
       0.04528299 -0.088722736 0.06598888 0.08597874
000350 7e b2 6e bd c3 61 4e be 45 a6 f6 bd 19 46 14 3e
       -0.058275692 -0.2015448 -0.12043432 0.14479865
000360 b1 92 31 be c0 9d f3 bd cf 19 14 3e 51 3f 57 3d
       -0.17341115 -0.11895323 0.1446297 0.052550618
000370 7c c9 43 3e 8c 86 c8 bd 1e ca af 3d 6b 22 e6 bc
       0.19119829 -0.09791288 0.08583473 -0.028092584
000380 b8 1f 13 3e 67 9f 57 be 13 65 c1 bc 84 1f 34 bd
       0.14367568 -0.21056901 -0.023607766 -0.04397537
000390 e9 00 15 bd 2a fe 89 bb 82 c3 0a 3e ed 23 54 bd
       -0.03637782 -0.004211207 0.13551143 -0.051792074
0003a0 61 ef ce bd 68 f6 87 3d af eb 7b 3d a6 8d fe bd
       -0.10104252 0.06638795 0.061504062 -0.12429361
0003b0 cc 93 c7 bc 97 47 86 bd 12 cd cf 3d c6 e7 8f bc
       -0.024362467 -0.065566234 0.10146536 -0.017566573
0003c0 45 f2 49 bd cb 39 72 3d 5b 8f 4d bd 12 f1 76 3d
       -0.04930331 0.059137147 -0.050185543 0.060288496
0003d0 f3 22 84 3d cd b4 11 3e 2a 9e 07 be e7 85 4b be
       0.064519785 0.14229126 -0.13243929 -0.19875298
0003e0 4e eb 25 be 1d a9 b8 3d f2 49 16 3e 9c 4e aa 3d
       -0.16203043 0.09016631 0.14676645 0.08315775
0003f0 ad e2 45 be 37 a6 9d bd fb 6f 9e 3d a0 94 cc 3d
       -0.19324751 -0.076977186 0.07736202 0.099892855

model.8.bias f4 [16]
000000 56 10 f4 3c 94 b0 5b 3e 28 47 5b 3d ac 07 00 3e
       0.029792946 0.21454078 0.053534657 0.12502927
000010 c1 e3 a4 bc db d4 ed 3d 65 6c 00 3d a0 4b 57 bd
       -0.020128133 0.116128646 0.031353373 -0.052562356
000020 39 1a c2 bd 8c 5a 5c bd 39 5d d0 3d 1e 35 9f bd
       -0.09477658 -0.05379729 0.10174031 -0.07773803
000030 28 63 bb bc c2 f0 0d 3e c8 2c 3d be c6 f8 45 3e
       -0.02287443 0.13861373 -0.18474114 0.19333181

model.10.weight f4 [1, 16]
000000 b4 21 90 be d7 83 c7 bd cb b3 a3 be de 77 43 be
       -0.28150713 -0.09741943 -0.3197311 -0.19088694
000010 94 d0 92 3d 5b 43 ed 3d 65 7c 31 bd 1b aa 64 3e
       0.07168689 0.11585113 -0.043331522 0.22330515
000020 77 45 c6 bd 78 e4 91 be 87 6c a9 bd ce 2a 7a be
       -0.09681218 -0.2849462 -0.08272653 -0.24430391
000030 eb 67 14 be b3 aa 01 3e b0 0f f3 bc f5 6b 55 be
       -0.14492767 0.12662773 -0.029670566 -0.20841964
